node {
  name: "filenames"
  op: "Const"
  attr {
    key: "dtype"
    value {
      type: DT_STRING
    }
  }
  attr {
    key: "value"
    value {
      tensor {
        dtype: DT_STRING
        tensor_shape {
          dim {
            size: 5
          }
        }
        string_val: "/home/yaroslav/cifar-data/cifar-10-batches-bin/data_batch_1.bin"
        string_val: "/home/yaroslav/cifar-data/cifar-10-batches-bin/data_batch_2.bin"
        string_val: "/home/yaroslav/cifar-data/cifar-10-batches-bin/data_batch_3.bin"
        string_val: "/home/yaroslav/cifar-data/cifar-10-batches-bin/data_batch_4.bin"
        string_val: "/home/yaroslav/cifar-data/cifar-10-batches-bin/data_batch_5.bin"
      }
    }
  }
}
node {
  name: "record_bytes"
  op: "Const"
  attr {
    key: "dtype"
    value {
      type: DT_INT64
    }
  }
  attr {
    key: "value"
    value {
      tensor {
        dtype: DT_INT64
        tensor_shape {
        }
        int64_val: 3073
      }
    }
  }
}
node {
  name: "header_bytes"
  op: "Const"
  attr {
    key: "dtype"
    value {
      type: DT_INT64
    }
  }
  attr {
    key: "value"
    value {
      tensor {
        dtype: DT_INT64
        tensor_shape {
        }
        int64_val: 0
      }
    }
  }
}
node {
  name: "footer_bytes"
  op: "Const"
  attr {
    key: "dtype"
    value {
      type: DT_INT64
    }
  }
  attr {
    key: "value"
    value {
      tensor {
        dtype: DT_INT64
        tensor_shape {
        }
        int64_val: 0
      }
    }
  }
}
node {
  name: "buffer_size"
  op: "Const"
  attr {
    key: "dtype"
    value {
      type: DT_INT64
    }
  }
  attr {
    key: "value"
    value {
      tensor {
        dtype: DT_INT64
        tensor_shape {
        }
        int64_val: 262144
      }
    }
  }
}
node {
  name: "count"
  op: "Const"
  attr {
    key: "dtype"
    value {
      type: DT_INT64
    }
  }
  attr {
    key: "value"
    value {
      tensor {
        dtype: DT_INT64
        tensor_shape {
        }
        int64_val: -1
      }
    }
  }
}
node {
  name: "num_parallel_calls"
  op: "Const"
  attr {
    key: "dtype"
    value {
      type: DT_INT32
    }
  }
  attr {
    key: "value"
    value {
      tensor {
        dtype: DT_INT32
        tensor_shape {
        }
        int_val: 1
      }
    }
  }
}
node {
  name: "Const"
  op: "Const"
  attr {
    key: "dtype"
    value {
      type: DT_INT64
    }
  }
  attr {
    key: "value"
    value {
      tensor {
        dtype: DT_INT64
        tensor_shape {
        }
        int64_val: 256
      }
    }
  }
}
node {
  name: "num_parallel_calls_1"
  op: "Const"
  attr {
    key: "dtype"
    value {
      type: DT_INT32
    }
  }
  attr {
    key: "value"
    value {
      tensor {
        dtype: DT_INT32
        tensor_shape {
        }
        int_val: 1
      }
    }
  }
}
node {
  name: "Const_1"
  op: "Const"
  attr {
    key: "dtype"
    value {
      type: DT_INT64
    }
  }
  attr {
    key: "value"
    value {
      tensor {
        dtype: DT_INT64
        tensor_shape {
        }
        int64_val: 256
      }
    }
  }
}
node {
  name: "buffer_size_1"
  op: "Const"
  attr {
    key: "dtype"
    value {
      type: DT_INT64
    }
  }
  attr {
    key: "value"
    value {
      tensor {
        dtype: DT_INT64
        tensor_shape {
        }
        int64_val: 20384
      }
    }
  }
}
node {
  name: "seed"
  op: "Const"
  attr {
    key: "dtype"
    value {
      type: DT_INT64
    }
  }
  attr {
    key: "value"
    value {
      tensor {
        dtype: DT_INT64
        tensor_shape {
        }
        int64_val: 0
      }
    }
  }
}
node {
  name: "seed2"
  op: "Const"
  attr {
    key: "dtype"
    value {
      type: DT_INT64
    }
  }
  attr {
    key: "value"
    value {
      tensor {
        dtype: DT_INT64
        tensor_shape {
        }
        int64_val: 0
      }
    }
  }
}
node {
  name: "num_parallel_calls_2"
  op: "Const"
  attr {
    key: "dtype"
    value {
      type: DT_INT32
    }
  }
  attr {
    key: "value"
    value {
      tensor {
        dtype: DT_INT32
        tensor_shape {
        }
        int_val: 1
      }
    }
  }
}
node {
  name: "Const_2"
  op: "Const"
  attr {
    key: "dtype"
    value {
      type: DT_INT64
    }
  }
  attr {
    key: "value"
    value {
      tensor {
        dtype: DT_INT64
        tensor_shape {
        }
        int64_val: 256
      }
    }
  }
}
node {
  name: "OneShotIterator"
  op: "OneShotIterator"
  attr {
    key: "container"
    value {
      s: ""
    }
  }
  attr {
    key: "dataset_factory"
    value {
      func {
        name: "_make_dataset_b1e173d1"
      }
    }
  }
  attr {
    key: "output_shapes"
    value {
      list {
        shape {
          dim {
            size: -1
          }
          dim {
            size: 32
          }
          dim {
            size: 32
          }
          dim {
            size: 3
          }
        }
        shape {
          dim {
            size: -1
          }
          dim {
            size: 10
          }
        }
      }
    }
  }
  attr {
    key: "output_types"
    value {
      list {
        type: DT_FLOAT
        type: DT_FLOAT
      }
    }
  }
  attr {
    key: "shared_name"
    value {
      s: ""
    }
  }
}
node {
  name: "IteratorGetNext"
  op: "IteratorGetNext"
  input: "OneShotIterator"
  attr {
    key: "output_shapes"
    value {
      list {
        shape {
          dim {
            size: -1
          }
          dim {
            size: 32
          }
          dim {
            size: 32
          }
          dim {
            size: 3
          }
        }
        shape {
          dim {
            size: -1
          }
          dim {
            size: 10
          }
        }
      }
    }
  }
  attr {
    key: "output_types"
    value {
      list {
        type: DT_FLOAT
        type: DT_FLOAT
      }
    }
  }
}
node {
  name: "Reshape/shape"
  op: "Const"
  attr {
    key: "dtype"
    value {
      type: DT_INT32
    }
  }
  attr {
    key: "value"
    value {
      tensor {
        dtype: DT_INT32
        tensor_shape {
          dim {
            size: 4
          }
        }
        tensor_content: "\200\000\000\000 \000\000\000 \000\000\000\003\000\000\000"
      }
    }
  }
}
node {
  name: "Reshape"
  op: "Reshape"
  input: "IteratorGetNext"
  input: "Reshape/shape"
  attr {
    key: "T"
    value {
      type: DT_FLOAT
    }
  }
  attr {
    key: "Tshape"
    value {
      type: DT_INT32
    }
  }
}
node {
  name: "transpose/perm"
  op: "Const"
  attr {
    key: "dtype"
    value {
      type: DT_INT32
    }
  }
  attr {
    key: "value"
    value {
      tensor {
        dtype: DT_INT32
        tensor_shape {
          dim {
            size: 4
          }
        }
        tensor_content: "\000\000\000\000\003\000\000\000\001\000\000\000\002\000\000\000"
      }
    }
  }
}
node {
  name: "transpose"
  op: "Transpose"
  input: "Reshape"
  input: "transpose/perm"
  attr {
    key: "T"
    value {
      type: DT_FLOAT
    }
  }
  attr {
    key: "Tperm"
    value {
      type: DT_INT32
    }
  }
}
node {
  name: "conv2d/kernel/Initializer/truncated_normal/shape"
  op: "Const"
  attr {
    key: "_class"
    value {
      list {
        s: "loc:@conv2d/kernel"
      }
    }
  }
  attr {
    key: "dtype"
    value {
      type: DT_INT32
    }
  }
  attr {
    key: "value"
    value {
      tensor {
        dtype: DT_INT32
        tensor_shape {
          dim {
            size: 4
          }
        }
        tensor_content: "\003\000\000\000\003\000\000\000\003\000\000\000\020\000\000\000"
      }
    }
  }
}
node {
  name: "conv2d/kernel/Initializer/truncated_normal/mean"
  op: "Const"
  attr {
    key: "_class"
    value {
      list {
        s: "loc:@conv2d/kernel"
      }
    }
  }
  attr {
    key: "dtype"
    value {
      type: DT_FLOAT
    }
  }
  attr {
    key: "value"
    value {
      tensor {
        dtype: DT_FLOAT
        tensor_shape {
        }
        float_val: 0.0
      }
    }
  }
}
node {
  name: "conv2d/kernel/Initializer/truncated_normal/stddev"
  op: "Const"
  attr {
    key: "_class"
    value {
      list {
        s: "loc:@conv2d/kernel"
      }
    }
  }
  attr {
    key: "dtype"
    value {
      type: DT_FLOAT
    }
  }
  attr {
    key: "value"
    value {
      tensor {
        dtype: DT_FLOAT
        tensor_shape {
        }
        float_val: 0.19245009124279022
      }
    }
  }
}
node {
  name: "conv2d/kernel/Initializer/truncated_normal/TruncatedNormal"
  op: "TruncatedNormal"
  input: "conv2d/kernel/Initializer/truncated_normal/shape"
  attr {
    key: "T"
    value {
      type: DT_INT32
    }
  }
  attr {
    key: "_class"
    value {
      list {
        s: "loc:@conv2d/kernel"
      }
    }
  }
  attr {
    key: "dtype"
    value {
      type: DT_FLOAT
    }
  }
  attr {
    key: "seed"
    value {
      i: 0
    }
  }
  attr {
    key: "seed2"
    value {
      i: 0
    }
  }
}
node {
  name: "conv2d/kernel/Initializer/truncated_normal/mul"
  op: "Mul"
  input: "conv2d/kernel/Initializer/truncated_normal/TruncatedNormal"
  input: "conv2d/kernel/Initializer/truncated_normal/stddev"
  attr {
    key: "T"
    value {
      type: DT_FLOAT
    }
  }
  attr {
    key: "_class"
    value {
      list {
        s: "loc:@conv2d/kernel"
      }
    }
  }
}
node {
  name: "conv2d/kernel/Initializer/truncated_normal"
  op: "Add"
  input: "conv2d/kernel/Initializer/truncated_normal/mul"
  input: "conv2d/kernel/Initializer/truncated_normal/mean"
  attr {
    key: "T"
    value {
      type: DT_FLOAT
    }
  }
  attr {
    key: "_class"
    value {
      list {
        s: "loc:@conv2d/kernel"
      }
    }
  }
}
node {
  name: "conv2d/kernel"
  op: "VariableV2"
  attr {
    key: "_class"
    value {
      list {
        s: "loc:@conv2d/kernel"
      }
    }
  }
  attr {
    key: "container"
    value {
      s: ""
    }
  }
  attr {
    key: "dtype"
    value {
      type: DT_FLOAT
    }
  }
  attr {
    key: "shape"
    value {
      shape {
        dim {
          size: 3
        }
        dim {
          size: 3
        }
        dim {
          size: 3
        }
        dim {
          size: 16
        }
      }
    }
  }
  attr {
    key: "shared_name"
    value {
      s: ""
    }
  }
}
node {
  name: "conv2d/kernel/Assign"
  op: "Assign"
  input: "conv2d/kernel"
  input: "conv2d/kernel/Initializer/truncated_normal"
  attr {
    key: "T"
    value {
      type: DT_FLOAT
    }
  }
  attr {
    key: "_class"
    value {
      list {
        s: "loc:@conv2d/kernel"
      }
    }
  }
  attr {
    key: "use_locking"
    value {
      b: true
    }
  }
  attr {
    key: "validate_shape"
    value {
      b: true
    }
  }
}
node {
  name: "conv2d/kernel/read"
  op: "Identity"
  input: "conv2d/kernel"
  attr {
    key: "T"
    value {
      type: DT_FLOAT
    }
  }
  attr {
    key: "_class"
    value {
      list {
        s: "loc:@conv2d/kernel"
      }
    }
  }
}
node {
  name: "conv2d/convolution/Shape"
  op: "Const"
  attr {
    key: "dtype"
    value {
      type: DT_INT32
    }
  }
  attr {
    key: "value"
    value {
      tensor {
        dtype: DT_INT32
        tensor_shape {
          dim {
            size: 4
          }
        }
        tensor_content: "\003\000\000\000\003\000\000\000\003\000\000\000\020\000\000\000"
      }
    }
  }
}
node {
  name: "conv2d/convolution/dilation_rate"
  op: "Const"
  attr {
    key: "dtype"
    value {
      type: DT_INT32
    }
  }
  attr {
    key: "value"
    value {
      tensor {
        dtype: DT_INT32
        tensor_shape {
          dim {
            size: 2
          }
        }
        tensor_content: "\001\000\000\000\001\000\000\000"
      }
    }
  }
}
node {
  name: "conv2d/convolution"
  op: "Conv2D"
  input: "transpose"
  input: "conv2d/kernel/read"
  attr {
    key: "T"
    value {
      type: DT_FLOAT
    }
  }
  attr {
    key: "data_format"
    value {
      s: "NCHW"
    }
  }
  attr {
    key: "padding"
    value {
      s: "SAME"
    }
  }
  attr {
    key: "strides"
    value {
      list {
        i: 1
        i: 1
        i: 1
        i: 1
      }
    }
  }
  attr {
    key: "use_cudnn_on_gpu"
    value {
      b: true
    }
  }
}
node {
  name: "initial_conv"
  op: "Identity"
  input: "conv2d/convolution"
  attr {
    key: "T"
    value {
      type: DT_FLOAT
    }
  }
}
node {
  name: "batch_normalization/gamma/Initializer/ones"
  op: "Const"
  attr {
    key: "_class"
    value {
      list {
        s: "loc:@batch_normalization/gamma"
      }
    }
  }
  attr {
    key: "dtype"
    value {
      type: DT_FLOAT
    }
  }
  attr {
    key: "value"
    value {
      tensor {
        dtype: DT_FLOAT
        tensor_shape {
          dim {
            size: 16
          }
        }
        float_val: 1.0
      }
    }
  }
}
node {
  name: "batch_normalization/gamma"
  op: "VariableV2"
  attr {
    key: "_class"
    value {
      list {
        s: "loc:@batch_normalization/gamma"
      }
    }
  }
  attr {
    key: "container"
    value {
      s: ""
    }
  }
  attr {
    key: "dtype"
    value {
      type: DT_FLOAT
    }
  }
  attr {
    key: "shape"
    value {
      shape {
        dim {
          size: 16
        }
      }
    }
  }
  attr {
    key: "shared_name"
    value {
      s: ""
    }
  }
}
node {
  name: "batch_normalization/gamma/Assign"
  op: "Assign"
  input: "batch_normalization/gamma"
  input: "batch_normalization/gamma/Initializer/ones"
  attr {
    key: "T"
    value {
      type: DT_FLOAT
    }
  }
  attr {
    key: "_class"
    value {
      list {
        s: "loc:@batch_normalization/gamma"
      }
    }
  }
  attr {
    key: "use_locking"
    value {
      b: true
    }
  }
  attr {
    key: "validate_shape"
    value {
      b: true
    }
  }
}
node {
  name: "batch_normalization/gamma/read"
  op: "Identity"
  input: "batch_normalization/gamma"
  attr {
    key: "T"
    value {
      type: DT_FLOAT
    }
  }
  attr {
    key: "_class"
    value {
      list {
        s: "loc:@batch_normalization/gamma"
      }
    }
  }
}
node {
  name: "batch_normalization/beta/Initializer/zeros"
  op: "Const"
  attr {
    key: "_class"
    value {
      list {
        s: "loc:@batch_normalization/beta"
      }
    }
  }
  attr {
    key: "dtype"
    value {
      type: DT_FLOAT
    }
  }
  attr {
    key: "value"
    value {
      tensor {
        dtype: DT_FLOAT
        tensor_shape {
          dim {
            size: 16
          }
        }
        float_val: 0.0
      }
    }
  }
}
node {
  name: "batch_normalization/beta"
  op: "VariableV2"
  attr {
    key: "_class"
    value {
      list {
        s: "loc:@batch_normalization/beta"
      }
    }
  }
  attr {
    key: "container"
    value {
      s: ""
    }
  }
  attr {
    key: "dtype"
    value {
      type: DT_FLOAT
    }
  }
  attr {
    key: "shape"
    value {
      shape {
        dim {
          size: 16
        }
      }
    }
  }
  attr {
    key: "shared_name"
    value {
      s: ""
    }
  }
}
node {
  name: "batch_normalization/beta/Assign"
  op: "Assign"
  input: "batch_normalization/beta"
  input: "batch_normalization/beta/Initializer/zeros"
  attr {
    key: "T"
    value {
      type: DT_FLOAT
    }
  }
  attr {
    key: "_class"
    value {
      list {
        s: "loc:@batch_normalization/beta"
      }
    }
  }
  attr {
    key: "use_locking"
    value {
      b: true
    }
  }
  attr {
    key: "validate_shape"
    value {
      b: true
    }
  }
}
node {
  name: "batch_normalization/beta/read"
  op: "Identity"
  input: "batch_normalization/beta"
  attr {
    key: "T"
    value {
      type: DT_FLOAT
    }
  }
  attr {
    key: "_class"
    value {
      list {
        s: "loc:@batch_normalization/beta"
      }
    }
  }
}
node {
  name: "batch_normalization/moving_mean/Initializer/zeros"
  op: "Const"
  attr {
    key: "_class"
    value {
      list {
        s: "loc:@batch_normalization/moving_mean"
      }
    }
  }
  attr {
    key: "dtype"
    value {
      type: DT_FLOAT
    }
  }
  attr {
    key: "value"
    value {
      tensor {
        dtype: DT_FLOAT
        tensor_shape {
          dim {
            size: 16
          }
        }
        float_val: 0.0
      }
    }
  }
}
node {
  name: "batch_normalization/moving_mean"
  op: "VariableV2"
  attr {
    key: "_class"
    value {
      list {
        s: "loc:@batch_normalization/moving_mean"
      }
    }
  }
  attr {
    key: "container"
    value {
      s: ""
    }
  }
  attr {
    key: "dtype"
    value {
      type: DT_FLOAT
    }
  }
  attr {
    key: "shape"
    value {
      shape {
        dim {
          size: 16
        }
      }
    }
  }
  attr {
    key: "shared_name"
    value {
      s: ""
    }
  }
}
node {
  name: "batch_normalization/moving_mean/Assign"
  op: "Assign"
  input: "batch_normalization/moving_mean"
  input: "batch_normalization/moving_mean/Initializer/zeros"
  attr {
    key: "T"
    value {
      type: DT_FLOAT
    }
  }
  attr {
    key: "_class"
    value {
      list {
        s: "loc:@batch_normalization/moving_mean"
      }
    }
  }
  attr {
    key: "use_locking"
    value {
      b: true
    }
  }
  attr {
    key: "validate_shape"
    value {
      b: true
    }
  }
}
node {
  name: "batch_normalization/moving_mean/read"
  op: "Identity"
  input: "batch_normalization/moving_mean"
  attr {
    key: "T"
    value {
      type: DT_FLOAT
    }
  }
  attr {
    key: "_class"
    value {
      list {
        s: "loc:@batch_normalization/moving_mean"
      }
    }
  }
}
node {
  name: "batch_normalization/moving_variance/Initializer/ones"
  op: "Const"
  attr {
    key: "_class"
    value {
      list {
        s: "loc:@batch_normalization/moving_variance"
      }
    }
  }
  attr {
    key: "dtype"
    value {
      type: DT_FLOAT
    }
  }
  attr {
    key: "value"
    value {
      tensor {
        dtype: DT_FLOAT
        tensor_shape {
          dim {
            size: 16
          }
        }
        float_val: 1.0
      }
    }
  }
}
node {
  name: "batch_normalization/moving_variance"
  op: "VariableV2"
  attr {
    key: "_class"
    value {
      list {
        s: "loc:@batch_normalization/moving_variance"
      }
    }
  }
  attr {
    key: "container"
    value {
      s: ""
    }
  }
  attr {
    key: "dtype"
    value {
      type: DT_FLOAT
    }
  }
  attr {
    key: "shape"
    value {
      shape {
        dim {
          size: 16
        }
      }
    }
  }
  attr {
    key: "shared_name"
    value {
      s: ""
    }
  }
}
node {
  name: "batch_normalization/moving_variance/Assign"
  op: "Assign"
  input: "batch_normalization/moving_variance"
  input: "batch_normalization/moving_variance/Initializer/ones"
  attr {
    key: "T"
    value {
      type: DT_FLOAT
    }
  }
  attr {
    key: "_class"
    value {
      list {
        s: "loc:@batch_normalization/moving_variance"
      }
    }
  }
  attr {
    key: "use_locking"
    value {
      b: true
    }
  }
  attr {
    key: "validate_shape"
    value {
      b: true
    }
  }
}
node {
  name: "batch_normalization/moving_variance/read"
  op: "Identity"
  input: "batch_normalization/moving_variance"
  attr {
    key: "T"
    value {
      type: DT_FLOAT
    }
  }
  attr {
    key: "_class"
    value {
      list {
        s: "loc:@batch_normalization/moving_variance"
      }
    }
  }
}
node {
  name: "batch_normalization/Const"
  op: "Const"
  attr {
    key: "dtype"
    value {
      type: DT_FLOAT
    }
  }
  attr {
    key: "value"
    value {
      tensor {
        dtype: DT_FLOAT
        tensor_shape {
          dim {
          }
        }
      }
    }
  }
}
node {
  name: "batch_normalization/Const_1"
  op: "Const"
  attr {
    key: "dtype"
    value {
      type: DT_FLOAT
    }
  }
  attr {
    key: "value"
    value {
      tensor {
        dtype: DT_FLOAT
        tensor_shape {
          dim {
          }
        }
      }
    }
  }
}
node {
  name: "batch_normalization/FusedBatchNorm"
  op: "FusedBatchNorm"
  input: "initial_conv"
  input: "batch_normalization/gamma/read"
  input: "batch_normalization/beta/read"
  input: "batch_normalization/Const"
  input: "batch_normalization/Const_1"
  attr {
    key: "T"
    value {
      type: DT_FLOAT
    }
  }
  attr {
    key: "data_format"
    value {
      s: "NCHW"
    }
  }
  attr {
    key: "epsilon"
    value {
      f: 1.0009999641624745e-05
    }
  }
  attr {
    key: "is_training"
    value {
      b: true
    }
  }
}
node {
  name: "batch_normalization/AssignMovingAvg/read"
  op: "Identity"
  input: "batch_normalization/moving_mean"
  attr {
    key: "T"
    value {
      type: DT_FLOAT
    }
  }
  attr {
    key: "_class"
    value {
      list {
        s: "loc:@batch_normalization/moving_mean"
      }
    }
  }
}
node {
  name: "batch_normalization/AssignMovingAvg/sub"
  op: "Sub"
  input: "batch_normalization/AssignMovingAvg/read"
  input: "batch_normalization/FusedBatchNorm:1"
  attr {
    key: "T"
    value {
      type: DT_FLOAT
    }
  }
  attr {
    key: "_class"
    value {
      list {
        s: "loc:@batch_normalization/moving_mean"
      }
    }
  }
}
node {
  name: "batch_normalization/AssignMovingAvg/mul/y"
  op: "Const"
  attr {
    key: "_class"
    value {
      list {
        s: "loc:@batch_normalization/moving_mean"
      }
    }
  }
  attr {
    key: "dtype"
    value {
      type: DT_FLOAT
    }
  }
  attr {
    key: "value"
    value {
      tensor {
        dtype: DT_FLOAT
        tensor_shape {
        }
        float_val: 0.003000000026077032
      }
    }
  }
}
node {
  name: "batch_normalization/AssignMovingAvg/mul"
  op: "Mul"
  input: "batch_normalization/AssignMovingAvg/sub"
  input: "batch_normalization/AssignMovingAvg/mul/y"
  attr {
    key: "T"
    value {
      type: DT_FLOAT
    }
  }
  attr {
    key: "_class"
    value {
      list {
        s: "loc:@batch_normalization/moving_mean"
      }
    }
  }
}
node {
  name: "batch_normalization/AssignMovingAvg"
  op: "AssignSub"
  input: "batch_normalization/moving_mean"
  input: "batch_normalization/AssignMovingAvg/mul"
  attr {
    key: "T"
    value {
      type: DT_FLOAT
    }
  }
  attr {
    key: "_class"
    value {
      list {
        s: "loc:@batch_normalization/moving_mean"
      }
    }
  }
  attr {
    key: "use_locking"
    value {
      b: false
    }
  }
}
node {
  name: "batch_normalization/AssignMovingAvg_1/read"
  op: "Identity"
  input: "batch_normalization/moving_variance"
  attr {
    key: "T"
    value {
      type: DT_FLOAT
    }
  }
  attr {
    key: "_class"
    value {
      list {
        s: "loc:@batch_normalization/moving_variance"
      }
    }
  }
}
node {
  name: "batch_normalization/AssignMovingAvg_1/sub"
  op: "Sub"
  input: "batch_normalization/AssignMovingAvg_1/read"
  input: "batch_normalization/FusedBatchNorm:2"
  attr {
    key: "T"
    value {
      type: DT_FLOAT
    }
  }
  attr {
    key: "_class"
    value {
      list {
        s: "loc:@batch_normalization/moving_variance"
      }
    }
  }
}
node {
  name: "batch_normalization/AssignMovingAvg_1/mul/y"
  op: "Const"
  attr {
    key: "_class"
    value {
      list {
        s: "loc:@batch_normalization/moving_variance"
      }
    }
  }
  attr {
    key: "dtype"
    value {
      type: DT_FLOAT
    }
  }
  attr {
    key: "value"
    value {
      tensor {
        dtype: DT_FLOAT
        tensor_shape {
        }
        float_val: 0.003000000026077032
      }
    }
  }
}
node {
  name: "batch_normalization/AssignMovingAvg_1/mul"
  op: "Mul"
  input: "batch_normalization/AssignMovingAvg_1/sub"
  input: "batch_normalization/AssignMovingAvg_1/mul/y"
  attr {
    key: "T"
    value {
      type: DT_FLOAT
    }
  }
  attr {
    key: "_class"
    value {
      list {
        s: "loc:@batch_normalization/moving_variance"
      }
    }
  }
}
node {
  name: "batch_normalization/AssignMovingAvg_1"
  op: "AssignSub"
  input: "batch_normalization/moving_variance"
  input: "batch_normalization/AssignMovingAvg_1/mul"
  attr {
    key: "T"
    value {
      type: DT_FLOAT
    }
  }
  attr {
    key: "_class"
    value {
      list {
        s: "loc:@batch_normalization/moving_variance"
      }
    }
  }
  attr {
    key: "use_locking"
    value {
      b: false
    }
  }
}
node {
  name: "Relu"
  op: "Relu"
  input: "batch_normalization/FusedBatchNorm"
  attr {
    key: "T"
    value {
      type: DT_FLOAT
    }
  }
}
node {
  name: "conv2d_1/kernel/Initializer/truncated_normal/shape"
  op: "Const"
  attr {
    key: "_class"
    value {
      list {
        s: "loc:@conv2d_1/kernel"
      }
    }
  }
  attr {
    key: "dtype"
    value {
      type: DT_INT32
    }
  }
  attr {
    key: "value"
    value {
      tensor {
        dtype: DT_INT32
        tensor_shape {
          dim {
            size: 4
          }
        }
        tensor_content: "\001\000\000\000\001\000\000\000\020\000\000\000\020\000\000\000"
      }
    }
  }
}
node {
  name: "conv2d_1/kernel/Initializer/truncated_normal/mean"
  op: "Const"
  attr {
    key: "_class"
    value {
      list {
        s: "loc:@conv2d_1/kernel"
      }
    }
  }
  attr {
    key: "dtype"
    value {
      type: DT_FLOAT
    }
  }
  attr {
    key: "value"
    value {
      tensor {
        dtype: DT_FLOAT
        tensor_shape {
        }
        float_val: 0.0
      }
    }
  }
}
node {
  name: "conv2d_1/kernel/Initializer/truncated_normal/stddev"
  op: "Const"
  attr {
    key: "_class"
    value {
      list {
        s: "loc:@conv2d_1/kernel"
      }
    }
  }
  attr {
    key: "dtype"
    value {
      type: DT_FLOAT
    }
  }
  attr {
    key: "value"
    value {
      tensor {
        dtype: DT_FLOAT
        tensor_shape {
        }
        float_val: 0.25
      }
    }
  }
}
node {
  name: "conv2d_1/kernel/Initializer/truncated_normal/TruncatedNormal"
  op: "TruncatedNormal"
  input: "conv2d_1/kernel/Initializer/truncated_normal/shape"
  attr {
    key: "T"
    value {
      type: DT_INT32
    }
  }
  attr {
    key: "_class"
    value {
      list {
        s: "loc:@conv2d_1/kernel"
      }
    }
  }
  attr {
    key: "dtype"
    value {
      type: DT_FLOAT
    }
  }
  attr {
    key: "seed"
    value {
      i: 0
    }
  }
  attr {
    key: "seed2"
    value {
      i: 0
    }
  }
}
node {
  name: "conv2d_1/kernel/Initializer/truncated_normal/mul"
  op: "Mul"
  input: "conv2d_1/kernel/Initializer/truncated_normal/TruncatedNormal"
  input: "conv2d_1/kernel/Initializer/truncated_normal/stddev"
  attr {
    key: "T"
    value {
      type: DT_FLOAT
    }
  }
  attr {
    key: "_class"
    value {
      list {
        s: "loc:@conv2d_1/kernel"
      }
    }
  }
}
node {
  name: "conv2d_1/kernel/Initializer/truncated_normal"
  op: "Add"
  input: "conv2d_1/kernel/Initializer/truncated_normal/mul"
  input: "conv2d_1/kernel/Initializer/truncated_normal/mean"
  attr {
    key: "T"
    value {
      type: DT_FLOAT
    }
  }
  attr {
    key: "_class"
    value {
      list {
        s: "loc:@conv2d_1/kernel"
      }
    }
  }
}
node {
  name: "conv2d_1/kernel"
  op: "VariableV2"
  attr {
    key: "_class"
    value {
      list {
        s: "loc:@conv2d_1/kernel"
      }
    }
  }
  attr {
    key: "container"
    value {
      s: ""
    }
  }
  attr {
    key: "dtype"
    value {
      type: DT_FLOAT
    }
  }
  attr {
    key: "shape"
    value {
      shape {
        dim {
          size: 1
        }
        dim {
          size: 1
        }
        dim {
          size: 16
        }
        dim {
          size: 16
        }
      }
    }
  }
  attr {
    key: "shared_name"
    value {
      s: ""
    }
  }
}
node {
  name: "conv2d_1/kernel/Assign"
  op: "Assign"
  input: "conv2d_1/kernel"
  input: "conv2d_1/kernel/Initializer/truncated_normal"
  attr {
    key: "T"
    value {
      type: DT_FLOAT
    }
  }
  attr {
    key: "_class"
    value {
      list {
        s: "loc:@conv2d_1/kernel"
      }
    }
  }
  attr {
    key: "use_locking"
    value {
      b: true
    }
  }
  attr {
    key: "validate_shape"
    value {
      b: true
    }
  }
}
node {
  name: "conv2d_1/kernel/read"
  op: "Identity"
  input: "conv2d_1/kernel"
  attr {
    key: "T"
    value {
      type: DT_FLOAT
    }
  }
  attr {
    key: "_class"
    value {
      list {
        s: "loc:@conv2d_1/kernel"
      }
    }
  }
}
node {
  name: "conv2d_2/convolution/Shape"
  op: "Const"
  attr {
    key: "dtype"
    value {
      type: DT_INT32
    }
  }
  attr {
    key: "value"
    value {
      tensor {
        dtype: DT_INT32
        tensor_shape {
          dim {
            size: 4
          }
        }
        tensor_content: "\001\000\000\000\001\000\000\000\020\000\000\000\020\000\000\000"
      }
    }
  }
}
node {
  name: "conv2d_2/convolution/dilation_rate"
  op: "Const"
  attr {
    key: "dtype"
    value {
      type: DT_INT32
    }
  }
  attr {
    key: "value"
    value {
      tensor {
        dtype: DT_INT32
        tensor_shape {
          dim {
            size: 2
          }
        }
        tensor_content: "\001\000\000\000\001\000\000\000"
      }
    }
  }
}
node {
  name: "conv2d_2/convolution"
  op: "Conv2D"
  input: "Relu"
  input: "conv2d_1/kernel/read"
  attr {
    key: "T"
    value {
      type: DT_FLOAT
    }
  }
  attr {
    key: "data_format"
    value {
      s: "NCHW"
    }
  }
  attr {
    key: "padding"
    value {
      s: "SAME"
    }
  }
  attr {
    key: "strides"
    value {
      list {
        i: 1
        i: 1
        i: 1
        i: 1
      }
    }
  }
  attr {
    key: "use_cudnn_on_gpu"
    value {
      b: true
    }
  }
}
node {
  name: "conv2d_2/kernel/Initializer/truncated_normal/shape"
  op: "Const"
  attr {
    key: "_class"
    value {
      list {
        s: "loc:@conv2d_2/kernel"
      }
    }
  }
  attr {
    key: "dtype"
    value {
      type: DT_INT32
    }
  }
  attr {
    key: "value"
    value {
      tensor {
        dtype: DT_INT32
        tensor_shape {
          dim {
            size: 4
          }
        }
        tensor_content: "\003\000\000\000\003\000\000\000\020\000\000\000\020\000\000\000"
      }
    }
  }
}
node {
  name: "conv2d_2/kernel/Initializer/truncated_normal/mean"
  op: "Const"
  attr {
    key: "_class"
    value {
      list {
        s: "loc:@conv2d_2/kernel"
      }
    }
  }
  attr {
    key: "dtype"
    value {
      type: DT_FLOAT
    }
  }
  attr {
    key: "value"
    value {
      tensor {
        dtype: DT_FLOAT
        tensor_shape {
        }
        float_val: 0.0
      }
    }
  }
}
node {
  name: "conv2d_2/kernel/Initializer/truncated_normal/stddev"
  op: "Const"
  attr {
    key: "_class"
    value {
      list {
        s: "loc:@conv2d_2/kernel"
      }
    }
  }
  attr {
    key: "dtype"
    value {
      type: DT_FLOAT
    }
  }
  attr {
    key: "value"
    value {
      tensor {
        dtype: DT_FLOAT
        tensor_shape {
        }
        float_val: 0.0833333358168602
      }
    }
  }
}
node {
  name: "conv2d_2/kernel/Initializer/truncated_normal/TruncatedNormal"
  op: "TruncatedNormal"
  input: "conv2d_2/kernel/Initializer/truncated_normal/shape"
  attr {
    key: "T"
    value {
      type: DT_INT32
    }
  }
  attr {
    key: "_class"
    value {
      list {
        s: "loc:@conv2d_2/kernel"
      }
    }
  }
  attr {
    key: "dtype"
    value {
      type: DT_FLOAT
    }
  }
  attr {
    key: "seed"
    value {
      i: 0
    }
  }
  attr {
    key: "seed2"
    value {
      i: 0
    }
  }
}
node {
  name: "conv2d_2/kernel/Initializer/truncated_normal/mul"
  op: "Mul"
  input: "conv2d_2/kernel/Initializer/truncated_normal/TruncatedNormal"
  input: "conv2d_2/kernel/Initializer/truncated_normal/stddev"
  attr {
    key: "T"
    value {
      type: DT_FLOAT
    }
  }
  attr {
    key: "_class"
    value {
      list {
        s: "loc:@conv2d_2/kernel"
      }
    }
  }
}
node {
  name: "conv2d_2/kernel/Initializer/truncated_normal"
  op: "Add"
  input: "conv2d_2/kernel/Initializer/truncated_normal/mul"
  input: "conv2d_2/kernel/Initializer/truncated_normal/mean"
  attr {
    key: "T"
    value {
      type: DT_FLOAT
    }
  }
  attr {
    key: "_class"
    value {
      list {
        s: "loc:@conv2d_2/kernel"
      }
    }
  }
}
node {
  name: "conv2d_2/kernel"
  op: "VariableV2"
  attr {
    key: "_class"
    value {
      list {
        s: "loc:@conv2d_2/kernel"
      }
    }
  }
  attr {
    key: "container"
    value {
      s: ""
    }
  }
  attr {
    key: "dtype"
    value {
      type: DT_FLOAT
    }
  }
  attr {
    key: "shape"
    value {
      shape {
        dim {
          size: 3
        }
        dim {
          size: 3
        }
        dim {
          size: 16
        }
        dim {
          size: 16
        }
      }
    }
  }
  attr {
    key: "shared_name"
    value {
      s: ""
    }
  }
}
node {
  name: "conv2d_2/kernel/Assign"
  op: "Assign"
  input: "conv2d_2/kernel"
  input: "conv2d_2/kernel/Initializer/truncated_normal"
  attr {
    key: "T"
    value {
      type: DT_FLOAT
    }
  }
  attr {
    key: "_class"
    value {
      list {
        s: "loc:@conv2d_2/kernel"
      }
    }
  }
  attr {
    key: "use_locking"
    value {
      b: true
    }
  }
  attr {
    key: "validate_shape"
    value {
      b: true
    }
  }
}
node {
  name: "conv2d_2/kernel/read"
  op: "Identity"
  input: "conv2d_2/kernel"
  attr {
    key: "T"
    value {
      type: DT_FLOAT
    }
  }
  attr {
    key: "_class"
    value {
      list {
        s: "loc:@conv2d_2/kernel"
      }
    }
  }
}
node {
  name: "conv2d_3/convolution/Shape"
  op: "Const"
  attr {
    key: "dtype"
    value {
      type: DT_INT32
    }
  }
  attr {
    key: "value"
    value {
      tensor {
        dtype: DT_INT32
        tensor_shape {
          dim {
            size: 4
          }
        }
        tensor_content: "\003\000\000\000\003\000\000\000\020\000\000\000\020\000\000\000"
      }
    }
  }
}
node {
  name: "conv2d_3/convolution/dilation_rate"
  op: "Const"
  attr {
    key: "dtype"
    value {
      type: DT_INT32
    }
  }
  attr {
    key: "value"
    value {
      tensor {
        dtype: DT_INT32
        tensor_shape {
          dim {
            size: 2
          }
        }
        tensor_content: "\001\000\000\000\001\000\000\000"
      }
    }
  }
}
node {
  name: "conv2d_3/convolution"
  op: "Conv2D"
  input: "Relu"
  input: "conv2d_2/kernel/read"
  attr {
    key: "T"
    value {
      type: DT_FLOAT
    }
  }
  attr {
    key: "data_format"
    value {
      s: "NCHW"
    }
  }
  attr {
    key: "padding"
    value {
      s: "SAME"
    }
  }
  attr {
    key: "strides"
    value {
      list {
        i: 1
        i: 1
        i: 1
        i: 1
      }
    }
  }
  attr {
    key: "use_cudnn_on_gpu"
    value {
      b: true
    }
  }
}
node {
  name: "batch_normalization_1/gamma/Initializer/ones"
  op: "Const"
  attr {
    key: "_class"
    value {
      list {
        s: "loc:@batch_normalization_1/gamma"
      }
    }
  }
  attr {
    key: "dtype"
    value {
      type: DT_FLOAT
    }
  }
  attr {
    key: "value"
    value {
      tensor {
        dtype: DT_FLOAT
        tensor_shape {
          dim {
            size: 16
          }
        }
        float_val: 1.0
      }
    }
  }
}
node {
  name: "batch_normalization_1/gamma"
  op: "VariableV2"
  attr {
    key: "_class"
    value {
      list {
        s: "loc:@batch_normalization_1/gamma"
      }
    }
  }
  attr {
    key: "container"
    value {
      s: ""
    }
  }
  attr {
    key: "dtype"
    value {
      type: DT_FLOAT
    }
  }
  attr {
    key: "shape"
    value {
      shape {
        dim {
          size: 16
        }
      }
    }
  }
  attr {
    key: "shared_name"
    value {
      s: ""
    }
  }
}
node {
  name: "batch_normalization_1/gamma/Assign"
  op: "Assign"
  input: "batch_normalization_1/gamma"
  input: "batch_normalization_1/gamma/Initializer/ones"
  attr {
    key: "T"
    value {
      type: DT_FLOAT
    }
  }
  attr {
    key: "_class"
    value {
      list {
        s: "loc:@batch_normalization_1/gamma"
      }
    }
  }
  attr {
    key: "use_locking"
    value {
      b: true
    }
  }
  attr {
    key: "validate_shape"
    value {
      b: true
    }
  }
}
node {
  name: "batch_normalization_1/gamma/read"
  op: "Identity"
  input: "batch_normalization_1/gamma"
  attr {
    key: "T"
    value {
      type: DT_FLOAT
    }
  }
  attr {
    key: "_class"
    value {
      list {
        s: "loc:@batch_normalization_1/gamma"
      }
    }
  }
}
node {
  name: "batch_normalization_1/beta/Initializer/zeros"
  op: "Const"
  attr {
    key: "_class"
    value {
      list {
        s: "loc:@batch_normalization_1/beta"
      }
    }
  }
  attr {
    key: "dtype"
    value {
      type: DT_FLOAT
    }
  }
  attr {
    key: "value"
    value {
      tensor {
        dtype: DT_FLOAT
        tensor_shape {
          dim {
            size: 16
          }
        }
        float_val: 0.0
      }
    }
  }
}
node {
  name: "batch_normalization_1/beta"
  op: "VariableV2"
  attr {
    key: "_class"
    value {
      list {
        s: "loc:@batch_normalization_1/beta"
      }
    }
  }
  attr {
    key: "container"
    value {
      s: ""
    }
  }
  attr {
    key: "dtype"
    value {
      type: DT_FLOAT
    }
  }
  attr {
    key: "shape"
    value {
      shape {
        dim {
          size: 16
        }
      }
    }
  }
  attr {
    key: "shared_name"
    value {
      s: ""
    }
  }
}
node {
  name: "batch_normalization_1/beta/Assign"
  op: "Assign"
  input: "batch_normalization_1/beta"
  input: "batch_normalization_1/beta/Initializer/zeros"
  attr {
    key: "T"
    value {
      type: DT_FLOAT
    }
  }
  attr {
    key: "_class"
    value {
      list {
        s: "loc:@batch_normalization_1/beta"
      }
    }
  }
  attr {
    key: "use_locking"
    value {
      b: true
    }
  }
  attr {
    key: "validate_shape"
    value {
      b: true
    }
  }
}
node {
  name: "batch_normalization_1/beta/read"
  op: "Identity"
  input: "batch_normalization_1/beta"
  attr {
    key: "T"
    value {
      type: DT_FLOAT
    }
  }
  attr {
    key: "_class"
    value {
      list {
        s: "loc:@batch_normalization_1/beta"
      }
    }
  }
}
node {
  name: "batch_normalization_1/moving_mean/Initializer/zeros"
  op: "Const"
  attr {
    key: "_class"
    value {
      list {
        s: "loc:@batch_normalization_1/moving_mean"
      }
    }
  }
  attr {
    key: "dtype"
    value {
      type: DT_FLOAT
    }
  }
  attr {
    key: "value"
    value {
      tensor {
        dtype: DT_FLOAT
        tensor_shape {
          dim {
            size: 16
          }
        }
        float_val: 0.0
      }
    }
  }
}
node {
  name: "batch_normalization_1/moving_mean"
  op: "VariableV2"
  attr {
    key: "_class"
    value {
      list {
        s: "loc:@batch_normalization_1/moving_mean"
      }
    }
  }
  attr {
    key: "container"
    value {
      s: ""
    }
  }
  attr {
    key: "dtype"
    value {
      type: DT_FLOAT
    }
  }
  attr {
    key: "shape"
    value {
      shape {
        dim {
          size: 16
        }
      }
    }
  }
  attr {
    key: "shared_name"
    value {
      s: ""
    }
  }
}
node {
  name: "batch_normalization_1/moving_mean/Assign"
  op: "Assign"
  input: "batch_normalization_1/moving_mean"
  input: "batch_normalization_1/moving_mean/Initializer/zeros"
  attr {
    key: "T"
    value {
      type: DT_FLOAT
    }
  }
  attr {
    key: "_class"
    value {
      list {
        s: "loc:@batch_normalization_1/moving_mean"
      }
    }
  }
  attr {
    key: "use_locking"
    value {
      b: true
    }
  }
  attr {
    key: "validate_shape"
    value {
      b: true
    }
  }
}
node {
  name: "batch_normalization_1/moving_mean/read"
  op: "Identity"
  input: "batch_normalization_1/moving_mean"
  attr {
    key: "T"
    value {
      type: DT_FLOAT
    }
  }
  attr {
    key: "_class"
    value {
      list {
        s: "loc:@batch_normalization_1/moving_mean"
      }
    }
  }
}
node {
  name: "batch_normalization_1/moving_variance/Initializer/ones"
  op: "Const"
  attr {
    key: "_class"
    value {
      list {
        s: "loc:@batch_normalization_1/moving_variance"
      }
    }
  }
  attr {
    key: "dtype"
    value {
      type: DT_FLOAT
    }
  }
  attr {
    key: "value"
    value {
      tensor {
        dtype: DT_FLOAT
        tensor_shape {
          dim {
            size: 16
          }
        }
        float_val: 1.0
      }
    }
  }
}
node {
  name: "batch_normalization_1/moving_variance"
  op: "VariableV2"
  attr {
    key: "_class"
    value {
      list {
        s: "loc:@batch_normalization_1/moving_variance"
      }
    }
  }
  attr {
    key: "container"
    value {
      s: ""
    }
  }
  attr {
    key: "dtype"
    value {
      type: DT_FLOAT
    }
  }
  attr {
    key: "shape"
    value {
      shape {
        dim {
          size: 16
        }
      }
    }
  }
  attr {
    key: "shared_name"
    value {
      s: ""
    }
  }
}
node {
  name: "batch_normalization_1/moving_variance/Assign"
  op: "Assign"
  input: "batch_normalization_1/moving_variance"
  input: "batch_normalization_1/moving_variance/Initializer/ones"
  attr {
    key: "T"
    value {
      type: DT_FLOAT
    }
  }
  attr {
    key: "_class"
    value {
      list {
        s: "loc:@batch_normalization_1/moving_variance"
      }
    }
  }
  attr {
    key: "use_locking"
    value {
      b: true
    }
  }
  attr {
    key: "validate_shape"
    value {
      b: true
    }
  }
}
node {
  name: "batch_normalization_1/moving_variance/read"
  op: "Identity"
  input: "batch_normalization_1/moving_variance"
  attr {
    key: "T"
    value {
      type: DT_FLOAT
    }
  }
  attr {
    key: "_class"
    value {
      list {
        s: "loc:@batch_normalization_1/moving_variance"
      }
    }
  }
}
node {
  name: "batch_normalization_2/Const"
  op: "Const"
  attr {
    key: "dtype"
    value {
      type: DT_FLOAT
    }
  }
  attr {
    key: "value"
    value {
      tensor {
        dtype: DT_FLOAT
        tensor_shape {
          dim {
          }
        }
      }
    }
  }
}
node {
  name: "batch_normalization_2/Const_1"
  op: "Const"
  attr {
    key: "dtype"
    value {
      type: DT_FLOAT
    }
  }
  attr {
    key: "value"
    value {
      tensor {
        dtype: DT_FLOAT
        tensor_shape {
          dim {
          }
        }
      }
    }
  }
}
node {
  name: "batch_normalization_2/FusedBatchNorm"
  op: "FusedBatchNorm"
  input: "conv2d_3/convolution"
  input: "batch_normalization_1/gamma/read"
  input: "batch_normalization_1/beta/read"
  input: "batch_normalization_2/Const"
  input: "batch_normalization_2/Const_1"
  attr {
    key: "T"
    value {
      type: DT_FLOAT
    }
  }
  attr {
    key: "data_format"
    value {
      s: "NCHW"
    }
  }
  attr {
    key: "epsilon"
    value {
      f: 1.0009999641624745e-05
    }
  }
  attr {
    key: "is_training"
    value {
      b: true
    }
  }
}
node {
  name: "batch_normalization_2/AssignMovingAvg/read"
  op: "Identity"
  input: "batch_normalization_1/moving_mean"
  attr {
    key: "T"
    value {
      type: DT_FLOAT
    }
  }
  attr {
    key: "_class"
    value {
      list {
        s: "loc:@batch_normalization_1/moving_mean"
      }
    }
  }
}
node {
  name: "batch_normalization_2/AssignMovingAvg/sub"
  op: "Sub"
  input: "batch_normalization_2/AssignMovingAvg/read"
  input: "batch_normalization_2/FusedBatchNorm:1"
  attr {
    key: "T"
    value {
      type: DT_FLOAT
    }
  }
  attr {
    key: "_class"
    value {
      list {
        s: "loc:@batch_normalization_1/moving_mean"
      }
    }
  }
}
node {
  name: "batch_normalization_2/AssignMovingAvg/mul/y"
  op: "Const"
  attr {
    key: "_class"
    value {
      list {
        s: "loc:@batch_normalization_1/moving_mean"
      }
    }
  }
  attr {
    key: "dtype"
    value {
      type: DT_FLOAT
    }
  }
  attr {
    key: "value"
    value {
      tensor {
        dtype: DT_FLOAT
        tensor_shape {
        }
        float_val: 0.003000000026077032
      }
    }
  }
}
node {
  name: "batch_normalization_2/AssignMovingAvg/mul"
  op: "Mul"
  input: "batch_normalization_2/AssignMovingAvg/sub"
  input: "batch_normalization_2/AssignMovingAvg/mul/y"
  attr {
    key: "T"
    value {
      type: DT_FLOAT
    }
  }
  attr {
    key: "_class"
    value {
      list {
        s: "loc:@batch_normalization_1/moving_mean"
      }
    }
  }
}
node {
  name: "batch_normalization_2/AssignMovingAvg"
  op: "AssignSub"
  input: "batch_normalization_1/moving_mean"
  input: "batch_normalization_2/AssignMovingAvg/mul"
  attr {
    key: "T"
    value {
      type: DT_FLOAT
    }
  }
  attr {
    key: "_class"
    value {
      list {
        s: "loc:@batch_normalization_1/moving_mean"
      }
    }
  }
  attr {
    key: "use_locking"
    value {
      b: false
    }
  }
}
node {
  name: "batch_normalization_2/AssignMovingAvg_1/read"
  op: "Identity"
  input: "batch_normalization_1/moving_variance"
  attr {
    key: "T"
    value {
      type: DT_FLOAT
    }
  }
  attr {
    key: "_class"
    value {
      list {
        s: "loc:@batch_normalization_1/moving_variance"
      }
    }
  }
}
node {
  name: "batch_normalization_2/AssignMovingAvg_1/sub"
  op: "Sub"
  input: "batch_normalization_2/AssignMovingAvg_1/read"
  input: "batch_normalization_2/FusedBatchNorm:2"
  attr {
    key: "T"
    value {
      type: DT_FLOAT
    }
  }
  attr {
    key: "_class"
    value {
      list {
        s: "loc:@batch_normalization_1/moving_variance"
      }
    }
  }
}
node {
  name: "batch_normalization_2/AssignMovingAvg_1/mul/y"
  op: "Const"
  attr {
    key: "_class"
    value {
      list {
        s: "loc:@batch_normalization_1/moving_variance"
      }
    }
  }
  attr {
    key: "dtype"
    value {
      type: DT_FLOAT
    }
  }
  attr {
    key: "value"
    value {
      tensor {
        dtype: DT_FLOAT
        tensor_shape {
        }
        float_val: 0.003000000026077032
      }
    }
  }
}
node {
  name: "batch_normalization_2/AssignMovingAvg_1/mul"
  op: "Mul"
  input: "batch_normalization_2/AssignMovingAvg_1/sub"
  input: "batch_normalization_2/AssignMovingAvg_1/mul/y"
  attr {
    key: "T"
    value {
      type: DT_FLOAT
    }
  }
  attr {
    key: "_class"
    value {
      list {
        s: "loc:@batch_normalization_1/moving_variance"
      }
    }
  }
}
node {
  name: "batch_normalization_2/AssignMovingAvg_1"
  op: "AssignSub"
  input: "batch_normalization_1/moving_variance"
  input: "batch_normalization_2/AssignMovingAvg_1/mul"
  attr {
    key: "T"
    value {
      type: DT_FLOAT
    }
  }
  attr {
    key: "_class"
    value {
      list {
        s: "loc:@batch_normalization_1/moving_variance"
      }
    }
  }
  attr {
    key: "use_locking"
    value {
      b: false
    }
  }
}
node {
  name: "Relu_1"
  op: "Relu"
  input: "batch_normalization_2/FusedBatchNorm"
  attr {
    key: "T"
    value {
      type: DT_FLOAT
    }
  }
}
node {
  name: "conv2d_3/kernel/Initializer/truncated_normal/shape"
  op: "Const"
  attr {
    key: "_class"
    value {
      list {
        s: "loc:@conv2d_3/kernel"
      }
    }
  }
  attr {
    key: "dtype"
    value {
      type: DT_INT32
    }
  }
  attr {
    key: "value"
    value {
      tensor {
        dtype: DT_INT32
        tensor_shape {
          dim {
            size: 4
          }
        }
        tensor_content: "\003\000\000\000\003\000\000\000\020\000\000\000\020\000\000\000"
      }
    }
  }
}
node {
  name: "conv2d_3/kernel/Initializer/truncated_normal/mean"
  op: "Const"
  attr {
    key: "_class"
    value {
      list {
        s: "loc:@conv2d_3/kernel"
      }
    }
  }
  attr {
    key: "dtype"
    value {
      type: DT_FLOAT
    }
  }
  attr {
    key: "value"
    value {
      tensor {
        dtype: DT_FLOAT
        tensor_shape {
        }
        float_val: 0.0
      }
    }
  }
}
node {
  name: "conv2d_3/kernel/Initializer/truncated_normal/stddev"
  op: "Const"
  attr {
    key: "_class"
    value {
      list {
        s: "loc:@conv2d_3/kernel"
      }
    }
  }
  attr {
    key: "dtype"
    value {
      type: DT_FLOAT
    }
  }
  attr {
    key: "value"
    value {
      tensor {
        dtype: DT_FLOAT
        tensor_shape {
        }
        float_val: 0.0833333358168602
      }
    }
  }
}
node {
  name: "conv2d_3/kernel/Initializer/truncated_normal/TruncatedNormal"
  op: "TruncatedNormal"
  input: "conv2d_3/kernel/Initializer/truncated_normal/shape"
  attr {
    key: "T"
    value {
      type: DT_INT32
    }
  }
  attr {
    key: "_class"
    value {
      list {
        s: "loc:@conv2d_3/kernel"
      }
    }
  }
  attr {
    key: "dtype"
    value {
      type: DT_FLOAT
    }
  }
  attr {
    key: "seed"
    value {
      i: 0
    }
  }
  attr {
    key: "seed2"
    value {
      i: 0
    }
  }
}
node {
  name: "conv2d_3/kernel/Initializer/truncated_normal/mul"
  op: "Mul"
  input: "conv2d_3/kernel/Initializer/truncated_normal/TruncatedNormal"
  input: "conv2d_3/kernel/Initializer/truncated_normal/stddev"
  attr {
    key: "T"
    value {
      type: DT_FLOAT
    }
  }
  attr {
    key: "_class"
    value {
      list {
        s: "loc:@conv2d_3/kernel"
      }
    }
  }
}
node {
  name: "conv2d_3/kernel/Initializer/truncated_normal"
  op: "Add"
  input: "conv2d_3/kernel/Initializer/truncated_normal/mul"
  input: "conv2d_3/kernel/Initializer/truncated_normal/mean"
  attr {
    key: "T"
    value {
      type: DT_FLOAT
    }
  }
  attr {
    key: "_class"
    value {
      list {
        s: "loc:@conv2d_3/kernel"
      }
    }
  }
}
node {
  name: "conv2d_3/kernel"
  op: "VariableV2"
  attr {
    key: "_class"
    value {
      list {
        s: "loc:@conv2d_3/kernel"
      }
    }
  }
  attr {
    key: "container"
    value {
      s: ""
    }
  }
  attr {
    key: "dtype"
    value {
      type: DT_FLOAT
    }
  }
  attr {
    key: "shape"
    value {
      shape {
        dim {
          size: 3
        }
        dim {
          size: 3
        }
        dim {
          size: 16
        }
        dim {
          size: 16
        }
      }
    }
  }
  attr {
    key: "shared_name"
    value {
      s: ""
    }
  }
}
node {
  name: "conv2d_3/kernel/Assign"
  op: "Assign"
  input: "conv2d_3/kernel"
  input: "conv2d_3/kernel/Initializer/truncated_normal"
  attr {
    key: "T"
    value {
      type: DT_FLOAT
    }
  }
  attr {
    key: "_class"
    value {
      list {
        s: "loc:@conv2d_3/kernel"
      }
    }
  }
  attr {
    key: "use_locking"
    value {
      b: true
    }
  }
  attr {
    key: "validate_shape"
    value {
      b: true
    }
  }
}
node {
  name: "conv2d_3/kernel/read"
  op: "Identity"
  input: "conv2d_3/kernel"
  attr {
    key: "T"
    value {
      type: DT_FLOAT
    }
  }
  attr {
    key: "_class"
    value {
      list {
        s: "loc:@conv2d_3/kernel"
      }
    }
  }
}
node {
  name: "conv2d_4/convolution/Shape"
  op: "Const"
  attr {
    key: "dtype"
    value {
      type: DT_INT32
    }
  }
  attr {
    key: "value"
    value {
      tensor {
        dtype: DT_INT32
        tensor_shape {
          dim {
            size: 4
          }
        }
        tensor_content: "\003\000\000\000\003\000\000\000\020\000\000\000\020\000\000\000"
      }
    }
  }
}
node {
  name: "conv2d_4/convolution/dilation_rate"
  op: "Const"
  attr {
    key: "dtype"
    value {
      type: DT_INT32
    }
  }
  attr {
    key: "value"
    value {
      tensor {
        dtype: DT_INT32
        tensor_shape {
          dim {
            size: 2
          }
        }
        tensor_content: "\001\000\000\000\001\000\000\000"
      }
    }
  }
}
node {
  name: "conv2d_4/convolution"
  op: "Conv2D"
  input: "Relu_1"
  input: "conv2d_3/kernel/read"
  attr {
    key: "T"
    value {
      type: DT_FLOAT
    }
  }
  attr {
    key: "data_format"
    value {
      s: "NCHW"
    }
  }
  attr {
    key: "padding"
    value {
      s: "SAME"
    }
  }
  attr {
    key: "strides"
    value {
      list {
        i: 1
        i: 1
        i: 1
        i: 1
      }
    }
  }
  attr {
    key: "use_cudnn_on_gpu"
    value {
      b: true
    }
  }
}
node {
  name: "add"
  op: "Add"
  input: "conv2d_4/convolution"
  input: "conv2d_2/convolution"
  attr {
    key: "T"
    value {
      type: DT_FLOAT
    }
  }
}
node {
  name: "block_layer1"
  op: "Identity"
  input: "add"
  attr {
    key: "T"
    value {
      type: DT_FLOAT
    }
  }
}
node {
  name: "batch_normalization_2/gamma/Initializer/ones"
  op: "Const"
  attr {
    key: "_class"
    value {
      list {
        s: "loc:@batch_normalization_2/gamma"
      }
    }
  }
  attr {
    key: "dtype"
    value {
      type: DT_FLOAT
    }
  }
  attr {
    key: "value"
    value {
      tensor {
        dtype: DT_FLOAT
        tensor_shape {
          dim {
            size: 16
          }
        }
        float_val: 1.0
      }
    }
  }
}
node {
  name: "batch_normalization_2/gamma"
  op: "VariableV2"
  attr {
    key: "_class"
    value {
      list {
        s: "loc:@batch_normalization_2/gamma"
      }
    }
  }
  attr {
    key: "container"
    value {
      s: ""
    }
  }
  attr {
    key: "dtype"
    value {
      type: DT_FLOAT
    }
  }
  attr {
    key: "shape"
    value {
      shape {
        dim {
          size: 16
        }
      }
    }
  }
  attr {
    key: "shared_name"
    value {
      s: ""
    }
  }
}
node {
  name: "batch_normalization_2/gamma/Assign"
  op: "Assign"
  input: "batch_normalization_2/gamma"
  input: "batch_normalization_2/gamma/Initializer/ones"
  attr {
    key: "T"
    value {
      type: DT_FLOAT
    }
  }
  attr {
    key: "_class"
    value {
      list {
        s: "loc:@batch_normalization_2/gamma"
      }
    }
  }
  attr {
    key: "use_locking"
    value {
      b: true
    }
  }
  attr {
    key: "validate_shape"
    value {
      b: true
    }
  }
}
node {
  name: "batch_normalization_2/gamma/read"
  op: "Identity"
  input: "batch_normalization_2/gamma"
  attr {
    key: "T"
    value {
      type: DT_FLOAT
    }
  }
  attr {
    key: "_class"
    value {
      list {
        s: "loc:@batch_normalization_2/gamma"
      }
    }
  }
}
node {
  name: "batch_normalization_2/beta/Initializer/zeros"
  op: "Const"
  attr {
    key: "_class"
    value {
      list {
        s: "loc:@batch_normalization_2/beta"
      }
    }
  }
  attr {
    key: "dtype"
    value {
      type: DT_FLOAT
    }
  }
  attr {
    key: "value"
    value {
      tensor {
        dtype: DT_FLOAT
        tensor_shape {
          dim {
            size: 16
          }
        }
        float_val: 0.0
      }
    }
  }
}
node {
  name: "batch_normalization_2/beta"
  op: "VariableV2"
  attr {
    key: "_class"
    value {
      list {
        s: "loc:@batch_normalization_2/beta"
      }
    }
  }
  attr {
    key: "container"
    value {
      s: ""
    }
  }
  attr {
    key: "dtype"
    value {
      type: DT_FLOAT
    }
  }
  attr {
    key: "shape"
    value {
      shape {
        dim {
          size: 16
        }
      }
    }
  }
  attr {
    key: "shared_name"
    value {
      s: ""
    }
  }
}
node {
  name: "batch_normalization_2/beta/Assign"
  op: "Assign"
  input: "batch_normalization_2/beta"
  input: "batch_normalization_2/beta/Initializer/zeros"
  attr {
    key: "T"
    value {
      type: DT_FLOAT
    }
  }
  attr {
    key: "_class"
    value {
      list {
        s: "loc:@batch_normalization_2/beta"
      }
    }
  }
  attr {
    key: "use_locking"
    value {
      b: true
    }
  }
  attr {
    key: "validate_shape"
    value {
      b: true
    }
  }
}
node {
  name: "batch_normalization_2/beta/read"
  op: "Identity"
  input: "batch_normalization_2/beta"
  attr {
    key: "T"
    value {
      type: DT_FLOAT
    }
  }
  attr {
    key: "_class"
    value {
      list {
        s: "loc:@batch_normalization_2/beta"
      }
    }
  }
}
node {
  name: "batch_normalization_2/moving_mean/Initializer/zeros"
  op: "Const"
  attr {
    key: "_class"
    value {
      list {
        s: "loc:@batch_normalization_2/moving_mean"
      }
    }
  }
  attr {
    key: "dtype"
    value {
      type: DT_FLOAT
    }
  }
  attr {
    key: "value"
    value {
      tensor {
        dtype: DT_FLOAT
        tensor_shape {
          dim {
            size: 16
          }
        }
        float_val: 0.0
      }
    }
  }
}
node {
  name: "batch_normalization_2/moving_mean"
  op: "VariableV2"
  attr {
    key: "_class"
    value {
      list {
        s: "loc:@batch_normalization_2/moving_mean"
      }
    }
  }
  attr {
    key: "container"
    value {
      s: ""
    }
  }
  attr {
    key: "dtype"
    value {
      type: DT_FLOAT
    }
  }
  attr {
    key: "shape"
    value {
      shape {
        dim {
          size: 16
        }
      }
    }
  }
  attr {
    key: "shared_name"
    value {
      s: ""
    }
  }
}
node {
  name: "batch_normalization_2/moving_mean/Assign"
  op: "Assign"
  input: "batch_normalization_2/moving_mean"
  input: "batch_normalization_2/moving_mean/Initializer/zeros"
  attr {
    key: "T"
    value {
      type: DT_FLOAT
    }
  }
  attr {
    key: "_class"
    value {
      list {
        s: "loc:@batch_normalization_2/moving_mean"
      }
    }
  }
  attr {
    key: "use_locking"
    value {
      b: true
    }
  }
  attr {
    key: "validate_shape"
    value {
      b: true
    }
  }
}
node {
  name: "batch_normalization_2/moving_mean/read"
  op: "Identity"
  input: "batch_normalization_2/moving_mean"
  attr {
    key: "T"
    value {
      type: DT_FLOAT
    }
  }
  attr {
    key: "_class"
    value {
      list {
        s: "loc:@batch_normalization_2/moving_mean"
      }
    }
  }
}
node {
  name: "batch_normalization_2/moving_variance/Initializer/ones"
  op: "Const"
  attr {
    key: "_class"
    value {
      list {
        s: "loc:@batch_normalization_2/moving_variance"
      }
    }
  }
  attr {
    key: "dtype"
    value {
      type: DT_FLOAT
    }
  }
  attr {
    key: "value"
    value {
      tensor {
        dtype: DT_FLOAT
        tensor_shape {
          dim {
            size: 16
          }
        }
        float_val: 1.0
      }
    }
  }
}
node {
  name: "batch_normalization_2/moving_variance"
  op: "VariableV2"
  attr {
    key: "_class"
    value {
      list {
        s: "loc:@batch_normalization_2/moving_variance"
      }
    }
  }
  attr {
    key: "container"
    value {
      s: ""
    }
  }
  attr {
    key: "dtype"
    value {
      type: DT_FLOAT
    }
  }
  attr {
    key: "shape"
    value {
      shape {
        dim {
          size: 16
        }
      }
    }
  }
  attr {
    key: "shared_name"
    value {
      s: ""
    }
  }
}
node {
  name: "batch_normalization_2/moving_variance/Assign"
  op: "Assign"
  input: "batch_normalization_2/moving_variance"
  input: "batch_normalization_2/moving_variance/Initializer/ones"
  attr {
    key: "T"
    value {
      type: DT_FLOAT
    }
  }
  attr {
    key: "_class"
    value {
      list {
        s: "loc:@batch_normalization_2/moving_variance"
      }
    }
  }
  attr {
    key: "use_locking"
    value {
      b: true
    }
  }
  attr {
    key: "validate_shape"
    value {
      b: true
    }
  }
}
node {
  name: "batch_normalization_2/moving_variance/read"
  op: "Identity"
  input: "batch_normalization_2/moving_variance"
  attr {
    key: "T"
    value {
      type: DT_FLOAT
    }
  }
  attr {
    key: "_class"
    value {
      list {
        s: "loc:@batch_normalization_2/moving_variance"
      }
    }
  }
}
node {
  name: "batch_normalization_3/Const"
  op: "Const"
  attr {
    key: "dtype"
    value {
      type: DT_FLOAT
    }
  }
  attr {
    key: "value"
    value {
      tensor {
        dtype: DT_FLOAT
        tensor_shape {
          dim {
          }
        }
      }
    }
  }
}
node {
  name: "batch_normalization_3/Const_1"
  op: "Const"
  attr {
    key: "dtype"
    value {
      type: DT_FLOAT
    }
  }
  attr {
    key: "value"
    value {
      tensor {
        dtype: DT_FLOAT
        tensor_shape {
          dim {
          }
        }
      }
    }
  }
}
node {
  name: "batch_normalization_3/FusedBatchNorm"
  op: "FusedBatchNorm"
  input: "block_layer1"
  input: "batch_normalization_2/gamma/read"
  input: "batch_normalization_2/beta/read"
  input: "batch_normalization_3/Const"
  input: "batch_normalization_3/Const_1"
  attr {
    key: "T"
    value {
      type: DT_FLOAT
    }
  }
  attr {
    key: "data_format"
    value {
      s: "NCHW"
    }
  }
  attr {
    key: "epsilon"
    value {
      f: 1.0009999641624745e-05
    }
  }
  attr {
    key: "is_training"
    value {
      b: true
    }
  }
}
node {
  name: "batch_normalization_3/AssignMovingAvg/read"
  op: "Identity"
  input: "batch_normalization_2/moving_mean"
  attr {
    key: "T"
    value {
      type: DT_FLOAT
    }
  }
  attr {
    key: "_class"
    value {
      list {
        s: "loc:@batch_normalization_2/moving_mean"
      }
    }
  }
}
node {
  name: "batch_normalization_3/AssignMovingAvg/sub"
  op: "Sub"
  input: "batch_normalization_3/AssignMovingAvg/read"
  input: "batch_normalization_3/FusedBatchNorm:1"
  attr {
    key: "T"
    value {
      type: DT_FLOAT
    }
  }
  attr {
    key: "_class"
    value {
      list {
        s: "loc:@batch_normalization_2/moving_mean"
      }
    }
  }
}
node {
  name: "batch_normalization_3/AssignMovingAvg/mul/y"
  op: "Const"
  attr {
    key: "_class"
    value {
      list {
        s: "loc:@batch_normalization_2/moving_mean"
      }
    }
  }
  attr {
    key: "dtype"
    value {
      type: DT_FLOAT
    }
  }
  attr {
    key: "value"
    value {
      tensor {
        dtype: DT_FLOAT
        tensor_shape {
        }
        float_val: 0.003000000026077032
      }
    }
  }
}
node {
  name: "batch_normalization_3/AssignMovingAvg/mul"
  op: "Mul"
  input: "batch_normalization_3/AssignMovingAvg/sub"
  input: "batch_normalization_3/AssignMovingAvg/mul/y"
  attr {
    key: "T"
    value {
      type: DT_FLOAT
    }
  }
  attr {
    key: "_class"
    value {
      list {
        s: "loc:@batch_normalization_2/moving_mean"
      }
    }
  }
}
node {
  name: "batch_normalization_3/AssignMovingAvg"
  op: "AssignSub"
  input: "batch_normalization_2/moving_mean"
  input: "batch_normalization_3/AssignMovingAvg/mul"
  attr {
    key: "T"
    value {
      type: DT_FLOAT
    }
  }
  attr {
    key: "_class"
    value {
      list {
        s: "loc:@batch_normalization_2/moving_mean"
      }
    }
  }
  attr {
    key: "use_locking"
    value {
      b: false
    }
  }
}
node {
  name: "batch_normalization_3/AssignMovingAvg_1/read"
  op: "Identity"
  input: "batch_normalization_2/moving_variance"
  attr {
    key: "T"
    value {
      type: DT_FLOAT
    }
  }
  attr {
    key: "_class"
    value {
      list {
        s: "loc:@batch_normalization_2/moving_variance"
      }
    }
  }
}
node {
  name: "batch_normalization_3/AssignMovingAvg_1/sub"
  op: "Sub"
  input: "batch_normalization_3/AssignMovingAvg_1/read"
  input: "batch_normalization_3/FusedBatchNorm:2"
  attr {
    key: "T"
    value {
      type: DT_FLOAT
    }
  }
  attr {
    key: "_class"
    value {
      list {
        s: "loc:@batch_normalization_2/moving_variance"
      }
    }
  }
}
node {
  name: "batch_normalization_3/AssignMovingAvg_1/mul/y"
  op: "Const"
  attr {
    key: "_class"
    value {
      list {
        s: "loc:@batch_normalization_2/moving_variance"
      }
    }
  }
  attr {
    key: "dtype"
    value {
      type: DT_FLOAT
    }
  }
  attr {
    key: "value"
    value {
      tensor {
        dtype: DT_FLOAT
        tensor_shape {
        }
        float_val: 0.003000000026077032
      }
    }
  }
}
node {
  name: "batch_normalization_3/AssignMovingAvg_1/mul"
  op: "Mul"
  input: "batch_normalization_3/AssignMovingAvg_1/sub"
  input: "batch_normalization_3/AssignMovingAvg_1/mul/y"
  attr {
    key: "T"
    value {
      type: DT_FLOAT
    }
  }
  attr {
    key: "_class"
    value {
      list {
        s: "loc:@batch_normalization_2/moving_variance"
      }
    }
  }
}
node {
  name: "batch_normalization_3/AssignMovingAvg_1"
  op: "AssignSub"
  input: "batch_normalization_2/moving_variance"
  input: "batch_normalization_3/AssignMovingAvg_1/mul"
  attr {
    key: "T"
    value {
      type: DT_FLOAT
    }
  }
  attr {
    key: "_class"
    value {
      list {
        s: "loc:@batch_normalization_2/moving_variance"
      }
    }
  }
  attr {
    key: "use_locking"
    value {
      b: false
    }
  }
}
node {
  name: "Relu_2"
  op: "Relu"
  input: "batch_normalization_3/FusedBatchNorm"
  attr {
    key: "T"
    value {
      type: DT_FLOAT
    }
  }
}
node {
  name: "Pad/paddings"
  op: "Const"
  attr {
    key: "dtype"
    value {
      type: DT_INT32
    }
  }
  attr {
    key: "value"
    value {
      tensor {
        dtype: DT_INT32
        tensor_shape {
          dim {
            size: 4
          }
          dim {
            size: 2
          }
        }
        tensor_content: "…"
      }
    }
  }
}
node {
  name: "Pad"
  op: "Pad"
  input: "Relu_2"
  input: "Pad/paddings"
  attr {
    key: "T"
    value {
      type: DT_FLOAT
    }
  }
  attr {
    key: "Tpaddings"
    value {
      type: DT_INT32
    }
  }
}
node {
  name: "conv2d_4/kernel/Initializer/truncated_normal/shape"
  op: "Const"
  attr {
    key: "_class"
    value {
      list {
        s: "loc:@conv2d_4/kernel"
      }
    }
  }
  attr {
    key: "dtype"
    value {
      type: DT_INT32
    }
  }
  attr {
    key: "value"
    value {
      tensor {
        dtype: DT_INT32
        tensor_shape {
          dim {
            size: 4
          }
        }
        tensor_content: "\001\000\000\000\001\000\000\000\020\000\000\000 \000\000\000"
      }
    }
  }
}
node {
  name: "conv2d_4/kernel/Initializer/truncated_normal/mean"
  op: "Const"
  attr {
    key: "_class"
    value {
      list {
        s: "loc:@conv2d_4/kernel"
      }
    }
  }
  attr {
    key: "dtype"
    value {
      type: DT_FLOAT
    }
  }
  attr {
    key: "value"
    value {
      tensor {
        dtype: DT_FLOAT
        tensor_shape {
        }
        float_val: 0.0
      }
    }
  }
}
node {
  name: "conv2d_4/kernel/Initializer/truncated_normal/stddev"
  op: "Const"
  attr {
    key: "_class"
    value {
      list {
        s: "loc:@conv2d_4/kernel"
      }
    }
  }
  attr {
    key: "dtype"
    value {
      type: DT_FLOAT
    }
  }
  attr {
    key: "value"
    value {
      tensor {
        dtype: DT_FLOAT
        tensor_shape {
        }
        float_val: 0.25
      }
    }
  }
}
node {
  name: "conv2d_4/kernel/Initializer/truncated_normal/TruncatedNormal"
  op: "TruncatedNormal"
  input: "conv2d_4/kernel/Initializer/truncated_normal/shape"
  attr {
    key: "T"
    value {
      type: DT_INT32
    }
  }
  attr {
    key: "_class"
    value {
      list {
        s: "loc:@conv2d_4/kernel"
      }
    }
  }
  attr {
    key: "dtype"
    value {
      type: DT_FLOAT
    }
  }
  attr {
    key: "seed"
    value {
      i: 0
    }
  }
  attr {
    key: "seed2"
    value {
      i: 0
    }
  }
}
node {
  name: "conv2d_4/kernel/Initializer/truncated_normal/mul"
  op: "Mul"
  input: "conv2d_4/kernel/Initializer/truncated_normal/TruncatedNormal"
  input: "conv2d_4/kernel/Initializer/truncated_normal/stddev"
  attr {
    key: "T"
    value {
      type: DT_FLOAT
    }
  }
  attr {
    key: "_class"
    value {
      list {
        s: "loc:@conv2d_4/kernel"
      }
    }
  }
}
node {
  name: "conv2d_4/kernel/Initializer/truncated_normal"
  op: "Add"
  input: "conv2d_4/kernel/Initializer/truncated_normal/mul"
  input: "conv2d_4/kernel/Initializer/truncated_normal/mean"
  attr {
    key: "T"
    value {
      type: DT_FLOAT
    }
  }
  attr {
    key: "_class"
    value {
      list {
        s: "loc:@conv2d_4/kernel"
      }
    }
  }
}
node {
  name: "conv2d_4/kernel"
  op: "VariableV2"
  attr {
    key: "_class"
    value {
      list {
        s: "loc:@conv2d_4/kernel"
      }
    }
  }
  attr {
    key: "container"
    value {
      s: ""
    }
  }
  attr {
    key: "dtype"
    value {
      type: DT_FLOAT
    }
  }
  attr {
    key: "shape"
    value {
      shape {
        dim {
          size: 1
        }
        dim {
          size: 1
        }
        dim {
          size: 16
        }
        dim {
          size: 32
        }
      }
    }
  }
  attr {
    key: "shared_name"
    value {
      s: ""
    }
  }
}
node {
  name: "conv2d_4/kernel/Assign"
  op: "Assign"
  input: "conv2d_4/kernel"
  input: "conv2d_4/kernel/Initializer/truncated_normal"
  attr {
    key: "T"
    value {
      type: DT_FLOAT
    }
  }
  attr {
    key: "_class"
    value {
      list {
        s: "loc:@conv2d_4/kernel"
      }
    }
  }
  attr {
    key: "use_locking"
    value {
      b: true
    }
  }
  attr {
    key: "validate_shape"
    value {
      b: true
    }
  }
}
node {
  name: "conv2d_4/kernel/read"
  op: "Identity"
  input: "conv2d_4/kernel"
  attr {
    key: "T"
    value {
      type: DT_FLOAT
    }
  }
  attr {
    key: "_class"
    value {
      list {
        s: "loc:@conv2d_4/kernel"
      }
    }
  }
}
node {
  name: "conv2d_5/convolution/Shape"
  op: "Const"
  attr {
    key: "dtype"
    value {
      type: DT_INT32
    }
  }
  attr {
    key: "value"
    value {
      tensor {
        dtype: DT_INT32
        tensor_shape {
          dim {
            size: 4
          }
        }
        tensor_content: "\001\000\000\000\001\000\000\000\020\000\000\000 \000\000\000"
      }
    }
  }
}
node {
  name: "conv2d_5/convolution/dilation_rate"
  op: "Const"
  attr {
    key: "dtype"
    value {
      type: DT_INT32
    }
  }
  attr {
    key: "value"
    value {
      tensor {
        dtype: DT_INT32
        tensor_shape {
          dim {
            size: 2
          }
        }
        tensor_content: "\001\000\000\000\001\000\000\000"
      }
    }
  }
}
node {
  name: "conv2d_5/convolution"
  op: "Conv2D"
  input: "Pad"
  input: "conv2d_4/kernel/read"
  attr {
    key: "T"
    value {
      type: DT_FLOAT
    }
  }
  attr {
    key: "data_format"
    value {
      s: "NCHW"
    }
  }
  attr {
    key: "padding"
    value {
      s: "VALID"
    }
  }
  attr {
    key: "strides"
    value {
      list {
        i: 1
        i: 1
        i: 2
        i: 2
      }
    }
  }
  attr {
    key: "use_cudnn_on_gpu"
    value {
      b: true
    }
  }
}
node {
  name: "Pad_1/paddings"
  op: "Const"
  attr {
    key: "dtype"
    value {
      type: DT_INT32
    }
  }
  attr {
    key: "value"
    value {
      tensor {
        dtype: DT_INT32
        tensor_shape {
          dim {
            size: 4
          }
          dim {
            size: 2
          }
        }
        tensor_content: "…"
      }
    }
  }
}
node {
  name: "Pad_1"
  op: "Pad"
  input: "Relu_2"
  input: "Pad_1/paddings"
  attr {
    key: "T"
    value {
      type: DT_FLOAT
    }
  }
  attr {
    key: "Tpaddings"
    value {
      type: DT_INT32
    }
  }
}
node {
  name: "conv2d_5/kernel/Initializer/truncated_normal/shape"
  op: "Const"
  attr {
    key: "_class"
    value {
      list {
        s: "loc:@conv2d_5/kernel"
      }
    }
  }
  attr {
    key: "dtype"
    value {
      type: DT_INT32
    }
  }
  attr {
    key: "value"
    value {
      tensor {
        dtype: DT_INT32
        tensor_shape {
          dim {
            size: 4
          }
        }
        tensor_content: "\003\000\000\000\003\000\000\000\020\000\000\000 \000\000\000"
      }
    }
  }
}
node {
  name: "conv2d_5/kernel/Initializer/truncated_normal/mean"
  op: "Const"
  attr {
    key: "_class"
    value {
      list {
        s: "loc:@conv2d_5/kernel"
      }
    }
  }
  attr {
    key: "dtype"
    value {
      type: DT_FLOAT
    }
  }
  attr {
    key: "value"
    value {
      tensor {
        dtype: DT_FLOAT
        tensor_shape {
        }
        float_val: 0.0
      }
    }
  }
}
node {
  name: "conv2d_5/kernel/Initializer/truncated_normal/stddev"
  op: "Const"
  attr {
    key: "_class"
    value {
      list {
        s: "loc:@conv2d_5/kernel"
      }
    }
  }
  attr {
    key: "dtype"
    value {
      type: DT_FLOAT
    }
  }
  attr {
    key: "value"
    value {
      tensor {
        dtype: DT_FLOAT
        tensor_shape {
        }
        float_val: 0.0833333358168602
      }
    }
  }
}
node {
  name: "conv2d_5/kernel/Initializer/truncated_normal/TruncatedNormal"
  op: "TruncatedNormal"
  input: "conv2d_5/kernel/Initializer/truncated_normal/shape"
  attr {
    key: "T"
    value {
      type: DT_INT32
    }
  }
  attr {
    key: "_class"
    value {
      list {
        s: "loc:@conv2d_5/kernel"
      }
    }
  }
  attr {
    key: "dtype"
    value {
      type: DT_FLOAT
    }
  }
  attr {
    key: "seed"
    value {
      i: 0
    }
  }
  attr {
    key: "seed2"
    value {
      i: 0
    }
  }
}
node {
  name: "conv2d_5/kernel/Initializer/truncated_normal/mul"
  op: "Mul"
  input: "conv2d_5/kernel/Initializer/truncated_normal/TruncatedNormal"
  input: "conv2d_5/kernel/Initializer/truncated_normal/stddev"
  attr {
    key: "T"
    value {
      type: DT_FLOAT
    }
  }
  attr {
    key: "_class"
    value {
      list {
        s: "loc:@conv2d_5/kernel"
      }
    }
  }
}
node {
  name: "conv2d_5/kernel/Initializer/truncated_normal"
  op: "Add"
  input: "conv2d_5/kernel/Initializer/truncated_normal/mul"
  input: "conv2d_5/kernel/Initializer/truncated_normal/mean"
  attr {
    key: "T"
    value {
      type: DT_FLOAT
    }
  }
  attr {
    key: "_class"
    value {
      list {
        s: "loc:@conv2d_5/kernel"
      }
    }
  }
}
node {
  name: "conv2d_5/kernel"
  op: "VariableV2"
  attr {
    key: "_class"
    value {
      list {
        s: "loc:@conv2d_5/kernel"
      }
    }
  }
  attr {
    key: "container"
    value {
      s: ""
    }
  }
  attr {
    key: "dtype"
    value {
      type: DT_FLOAT
    }
  }
  attr {
    key: "shape"
    value {
      shape {
        dim {
          size: 3
        }
        dim {
          size: 3
        }
        dim {
          size: 16
        }
        dim {
          size: 32
        }
      }
    }
  }
  attr {
    key: "shared_name"
    value {
      s: ""
    }
  }
}
node {
  name: "conv2d_5/kernel/Assign"
  op: "Assign"
  input: "conv2d_5/kernel"
  input: "conv2d_5/kernel/Initializer/truncated_normal"
  attr {
    key: "T"
    value {
      type: DT_FLOAT
    }
  }
  attr {
    key: "_class"
    value {
      list {
        s: "loc:@conv2d_5/kernel"
      }
    }
  }
  attr {
    key: "use_locking"
    value {
      b: true
    }
  }
  attr {
    key: "validate_shape"
    value {
      b: true
    }
  }
}
node {
  name: "conv2d_5/kernel/read"
  op: "Identity"
  input: "conv2d_5/kernel"
  attr {
    key: "T"
    value {
      type: DT_FLOAT
    }
  }
  attr {
    key: "_class"
    value {
      list {
        s: "loc:@conv2d_5/kernel"
      }
    }
  }
}
node {
  name: "conv2d_6/convolution/Shape"
  op: "Const"
  attr {
    key: "dtype"
    value {
      type: DT_INT32
    }
  }
  attr {
    key: "value"
    value {
      tensor {
        dtype: DT_INT32
        tensor_shape {
          dim {
            size: 4
          }
        }
        tensor_content: "\003\000\000\000\003\000\000\000\020\000\000\000 \000\000\000"
      }
    }
  }
}
node {
  name: "conv2d_6/convolution/dilation_rate"
  op: "Const"
  attr {
    key: "dtype"
    value {
      type: DT_INT32
    }
  }
  attr {
    key: "value"
    value {
      tensor {
        dtype: DT_INT32
        tensor_shape {
          dim {
            size: 2
          }
        }
        tensor_content: "\001\000\000\000\001\000\000\000"
      }
    }
  }
}
node {
  name: "conv2d_6/convolution"
  op: "Conv2D"
  input: "Pad_1"
  input: "conv2d_5/kernel/read"
  attr {
    key: "T"
    value {
      type: DT_FLOAT
    }
  }
  attr {
    key: "data_format"
    value {
      s: "NCHW"
    }
  }
  attr {
    key: "padding"
    value {
      s: "VALID"
    }
  }
  attr {
    key: "strides"
    value {
      list {
        i: 1
        i: 1
        i: 2
        i: 2
      }
    }
  }
  attr {
    key: "use_cudnn_on_gpu"
    value {
      b: true
    }
  }
}
node {
  name: "batch_normalization_3/gamma/Initializer/ones"
  op: "Const"
  attr {
    key: "_class"
    value {
      list {
        s: "loc:@batch_normalization_3/gamma"
      }
    }
  }
  attr {
    key: "dtype"
    value {
      type: DT_FLOAT
    }
  }
  attr {
    key: "value"
    value {
      tensor {
        dtype: DT_FLOAT
        tensor_shape {
          dim {
            size: 32
          }
        }
        float_val: 1.0
      }
    }
  }
}
node {
  name: "batch_normalization_3/gamma"
  op: "VariableV2"
  attr {
    key: "_class"
    value {
      list {
        s: "loc:@batch_normalization_3/gamma"
      }
    }
  }
  attr {
    key: "container"
    value {
      s: ""
    }
  }
  attr {
    key: "dtype"
    value {
      type: DT_FLOAT
    }
  }
  attr {
    key: "shape"
    value {
      shape {
        dim {
          size: 32
        }
      }
    }
  }
  attr {
    key: "shared_name"
    value {
      s: ""
    }
  }
}
node {
  name: "batch_normalization_3/gamma/Assign"
  op: "Assign"
  input: "batch_normalization_3/gamma"
  input: "batch_normalization_3/gamma/Initializer/ones"
  attr {
    key: "T"
    value {
      type: DT_FLOAT
    }
  }
  attr {
    key: "_class"
    value {
      list {
        s: "loc:@batch_normalization_3/gamma"
      }
    }
  }
  attr {
    key: "use_locking"
    value {
      b: true
    }
  }
  attr {
    key: "validate_shape"
    value {
      b: true
    }
  }
}
node {
  name: "batch_normalization_3/gamma/read"
  op: "Identity"
  input: "batch_normalization_3/gamma"
  attr {
    key: "T"
    value {
      type: DT_FLOAT
    }
  }
  attr {
    key: "_class"
    value {
      list {
        s: "loc:@batch_normalization_3/gamma"
      }
    }
  }
}
node {
  name: "batch_normalization_3/beta/Initializer/zeros"
  op: "Const"
  attr {
    key: "_class"
    value {
      list {
        s: "loc:@batch_normalization_3/beta"
      }
    }
  }
  attr {
    key: "dtype"
    value {
      type: DT_FLOAT
    }
  }
  attr {
    key: "value"
    value {
      tensor {
        dtype: DT_FLOAT
        tensor_shape {
          dim {
            size: 32
          }
        }
        float_val: 0.0
      }
    }
  }
}
node {
  name: "batch_normalization_3/beta"
  op: "VariableV2"
  attr {
    key: "_class"
    value {
      list {
        s: "loc:@batch_normalization_3/beta"
      }
    }
  }
  attr {
    key: "container"
    value {
      s: ""
    }
  }
  attr {
    key: "dtype"
    value {
      type: DT_FLOAT
    }
  }
  attr {
    key: "shape"
    value {
      shape {
        dim {
          size: 32
        }
      }
    }
  }
  attr {
    key: "shared_name"
    value {
      s: ""
    }
  }
}
node {
  name: "batch_normalization_3/beta/Assign"
  op: "Assign"
  input: "batch_normalization_3/beta"
  input: "batch_normalization_3/beta/Initializer/zeros"
  attr {
    key: "T"
    value {
      type: DT_FLOAT
    }
  }
  attr {
    key: "_class"
    value {
      list {
        s: "loc:@batch_normalization_3/beta"
      }
    }
  }
  attr {
    key: "use_locking"
    value {
      b: true
    }
  }
  attr {
    key: "validate_shape"
    value {
      b: true
    }
  }
}
node {
  name: "batch_normalization_3/beta/read"
  op: "Identity"
  input: "batch_normalization_3/beta"
  attr {
    key: "T"
    value {
      type: DT_FLOAT
    }
  }
  attr {
    key: "_class"
    value {
      list {
        s: "loc:@batch_normalization_3/beta"
      }
    }
  }
}
node {
  name: "batch_normalization_3/moving_mean/Initializer/zeros"
  op: "Const"
  attr {
    key: "_class"
    value {
      list {
        s: "loc:@batch_normalization_3/moving_mean"
      }
    }
  }
  attr {
    key: "dtype"
    value {
      type: DT_FLOAT
    }
  }
  attr {
    key: "value"
    value {
      tensor {
        dtype: DT_FLOAT
        tensor_shape {
          dim {
            size: 32
          }
        }
        float_val: 0.0
      }
    }
  }
}
node {
  name: "batch_normalization_3/moving_mean"
  op: "VariableV2"
  attr {
    key: "_class"
    value {
      list {
        s: "loc:@batch_normalization_3/moving_mean"
      }
    }
  }
  attr {
    key: "container"
    value {
      s: ""
    }
  }
  attr {
    key: "dtype"
    value {
      type: DT_FLOAT
    }
  }
  attr {
    key: "shape"
    value {
      shape {
        dim {
          size: 32
        }
      }
    }
  }
  attr {
    key: "shared_name"
    value {
      s: ""
    }
  }
}
node {
  name: "batch_normalization_3/moving_mean/Assign"
  op: "Assign"
  input: "batch_normalization_3/moving_mean"
  input: "batch_normalization_3/moving_mean/Initializer/zeros"
  attr {
    key: "T"
    value {
      type: DT_FLOAT
    }
  }
  attr {
    key: "_class"
    value {
      list {
        s: "loc:@batch_normalization_3/moving_mean"
      }
    }
  }
  attr {
    key: "use_locking"
    value {
      b: true
    }
  }
  attr {
    key: "validate_shape"
    value {
      b: true
    }
  }
}
node {
  name: "batch_normalization_3/moving_mean/read"
  op: "Identity"
  input: "batch_normalization_3/moving_mean"
  attr {
    key: "T"
    value {
      type: DT_FLOAT
    }
  }
  attr {
    key: "_class"
    value {
      list {
        s: "loc:@batch_normalization_3/moving_mean"
      }
    }
  }
}
node {
  name: "batch_normalization_3/moving_variance/Initializer/ones"
  op: "Const"
  attr {
    key: "_class"
    value {
      list {
        s: "loc:@batch_normalization_3/moving_variance"
      }
    }
  }
  attr {
    key: "dtype"
    value {
      type: DT_FLOAT
    }
  }
  attr {
    key: "value"
    value {
      tensor {
        dtype: DT_FLOAT
        tensor_shape {
          dim {
            size: 32
          }
        }
        float_val: 1.0
      }
    }
  }
}
node {
  name: "batch_normalization_3/moving_variance"
  op: "VariableV2"
  attr {
    key: "_class"
    value {
      list {
        s: "loc:@batch_normalization_3/moving_variance"
      }
    }
  }
  attr {
    key: "container"
    value {
      s: ""
    }
  }
  attr {
    key: "dtype"
    value {
      type: DT_FLOAT
    }
  }
  attr {
    key: "shape"
    value {
      shape {
        dim {
          size: 32
        }
      }
    }
  }
  attr {
    key: "shared_name"
    value {
      s: ""
    }
  }
}
node {
  name: "batch_normalization_3/moving_variance/Assign"
  op: "Assign"
  input: "batch_normalization_3/moving_variance"
  input: "batch_normalization_3/moving_variance/Initializer/ones"
  attr {
    key: "T"
    value {
      type: DT_FLOAT
    }
  }
  attr {
    key: "_class"
    value {
      list {
        s: "loc:@batch_normalization_3/moving_variance"
      }
    }
  }
  attr {
    key: "use_locking"
    value {
      b: true
    }
  }
  attr {
    key: "validate_shape"
    value {
      b: true
    }
  }
}
node {
  name: "batch_normalization_3/moving_variance/read"
  op: "Identity"
  input: "batch_normalization_3/moving_variance"
  attr {
    key: "T"
    value {
      type: DT_FLOAT
    }
  }
  attr {
    key: "_class"
    value {
      list {
        s: "loc:@batch_normalization_3/moving_variance"
      }
    }
  }
}
node {
  name: "batch_normalization_4/Const"
  op: "Const"
  attr {
    key: "dtype"
    value {
      type: DT_FLOAT
    }
  }
  attr {
    key: "value"
    value {
      tensor {
        dtype: DT_FLOAT
        tensor_shape {
          dim {
          }
        }
      }
    }
  }
}
node {
  name: "batch_normalization_4/Const_1"
  op: "Const"
  attr {
    key: "dtype"
    value {
      type: DT_FLOAT
    }
  }
  attr {
    key: "value"
    value {
      tensor {
        dtype: DT_FLOAT
        tensor_shape {
          dim {
          }
        }
      }
    }
  }
}
node {
  name: "batch_normalization_4/FusedBatchNorm"
  op: "FusedBatchNorm"
  input: "conv2d_6/convolution"
  input: "batch_normalization_3/gamma/read"
  input: "batch_normalization_3/beta/read"
  input: "batch_normalization_4/Const"
  input: "batch_normalization_4/Const_1"
  attr {
    key: "T"
    value {
      type: DT_FLOAT
    }
  }
  attr {
    key: "data_format"
    value {
      s: "NCHW"
    }
  }
  attr {
    key: "epsilon"
    value {
      f: 1.0009999641624745e-05
    }
  }
  attr {
    key: "is_training"
    value {
      b: true
    }
  }
}
node {
  name: "batch_normalization_4/AssignMovingAvg/read"
  op: "Identity"
  input: "batch_normalization_3/moving_mean"
  attr {
    key: "T"
    value {
      type: DT_FLOAT
    }
  }
  attr {
    key: "_class"
    value {
      list {
        s: "loc:@batch_normalization_3/moving_mean"
      }
    }
  }
}
node {
  name: "batch_normalization_4/AssignMovingAvg/sub"
  op: "Sub"
  input: "batch_normalization_4/AssignMovingAvg/read"
  input: "batch_normalization_4/FusedBatchNorm:1"
  attr {
    key: "T"
    value {
      type: DT_FLOAT
    }
  }
  attr {
    key: "_class"
    value {
      list {
        s: "loc:@batch_normalization_3/moving_mean"
      }
    }
  }
}
node {
  name: "batch_normalization_4/AssignMovingAvg/mul/y"
  op: "Const"
  attr {
    key: "_class"
    value {
      list {
        s: "loc:@batch_normalization_3/moving_mean"
      }
    }
  }
  attr {
    key: "dtype"
    value {
      type: DT_FLOAT
    }
  }
  attr {
    key: "value"
    value {
      tensor {
        dtype: DT_FLOAT
        tensor_shape {
        }
        float_val: 0.003000000026077032
      }
    }
  }
}
node {
  name: "batch_normalization_4/AssignMovingAvg/mul"
  op: "Mul"
  input: "batch_normalization_4/AssignMovingAvg/sub"
  input: "batch_normalization_4/AssignMovingAvg/mul/y"
  attr {
    key: "T"
    value {
      type: DT_FLOAT
    }
  }
  attr {
    key: "_class"
    value {
      list {
        s: "loc:@batch_normalization_3/moving_mean"
      }
    }
  }
}
node {
  name: "batch_normalization_4/AssignMovingAvg"
  op: "AssignSub"
  input: "batch_normalization_3/moving_mean"
  input: "batch_normalization_4/AssignMovingAvg/mul"
  attr {
    key: "T"
    value {
      type: DT_FLOAT
    }
  }
  attr {
    key: "_class"
    value {
      list {
        s: "loc:@batch_normalization_3/moving_mean"
      }
    }
  }
  attr {
    key: "use_locking"
    value {
      b: false
    }
  }
}
node {
  name: "batch_normalization_4/AssignMovingAvg_1/read"
  op: "Identity"
  input: "batch_normalization_3/moving_variance"
  attr {
    key: "T"
    value {
      type: DT_FLOAT
    }
  }
  attr {
    key: "_class"
    value {
      list {
        s: "loc:@batch_normalization_3/moving_variance"
      }
    }
  }
}
node {
  name: "batch_normalization_4/AssignMovingAvg_1/sub"
  op: "Sub"
  input: "batch_normalization_4/AssignMovingAvg_1/read"
  input: "batch_normalization_4/FusedBatchNorm:2"
  attr {
    key: "T"
    value {
      type: DT_FLOAT
    }
  }
  attr {
    key: "_class"
    value {
      list {
        s: "loc:@batch_normalization_3/moving_variance"
      }
    }
  }
}
node {
  name: "batch_normalization_4/AssignMovingAvg_1/mul/y"
  op: "Const"
  attr {
    key: "_class"
    value {
      list {
        s: "loc:@batch_normalization_3/moving_variance"
      }
    }
  }
  attr {
    key: "dtype"
    value {
      type: DT_FLOAT
    }
  }
  attr {
    key: "value"
    value {
      tensor {
        dtype: DT_FLOAT
        tensor_shape {
        }
        float_val: 0.003000000026077032
      }
    }
  }
}
node {
  name: "batch_normalization_4/AssignMovingAvg_1/mul"
  op: "Mul"
  input: "batch_normalization_4/AssignMovingAvg_1/sub"
  input: "batch_normalization_4/AssignMovingAvg_1/mul/y"
  attr {
    key: "T"
    value {
      type: DT_FLOAT
    }
  }
  attr {
    key: "_class"
    value {
      list {
        s: "loc:@batch_normalization_3/moving_variance"
      }
    }
  }
}
node {
  name: "batch_normalization_4/AssignMovingAvg_1"
  op: "AssignSub"
  input: "batch_normalization_3/moving_variance"
  input: "batch_normalization_4/AssignMovingAvg_1/mul"
  attr {
    key: "T"
    value {
      type: DT_FLOAT
    }
  }
  attr {
    key: "_class"
    value {
      list {
        s: "loc:@batch_normalization_3/moving_variance"
      }
    }
  }
  attr {
    key: "use_locking"
    value {
      b: false
    }
  }
}
node {
  name: "Relu_3"
  op: "Relu"
  input: "batch_normalization_4/FusedBatchNorm"
  attr {
    key: "T"
    value {
      type: DT_FLOAT
    }
  }
}
node {
  name: "conv2d_6/kernel/Initializer/truncated_normal/shape"
  op: "Const"
  attr {
    key: "_class"
    value {
      list {
        s: "loc:@conv2d_6/kernel"
      }
    }
  }
  attr {
    key: "dtype"
    value {
      type: DT_INT32
    }
  }
  attr {
    key: "value"
    value {
      tensor {
        dtype: DT_INT32
        tensor_shape {
          dim {
            size: 4
          }
        }
        tensor_content: "\003\000\000\000\003\000\000\000 \000\000\000 \000\000\000"
      }
    }
  }
}
node {
  name: "conv2d_6/kernel/Initializer/truncated_normal/mean"
  op: "Const"
  attr {
    key: "_class"
    value {
      list {
        s: "loc:@conv2d_6/kernel"
      }
    }
  }
  attr {
    key: "dtype"
    value {
      type: DT_FLOAT
    }
  }
  attr {
    key: "value"
    value {
      tensor {
        dtype: DT_FLOAT
        tensor_shape {
        }
        float_val: 0.0
      }
    }
  }
}
node {
  name: "conv2d_6/kernel/Initializer/truncated_normal/stddev"
  op: "Const"
  attr {
    key: "_class"
    value {
      list {
        s: "loc:@conv2d_6/kernel"
      }
    }
  }
  attr {
    key: "dtype"
    value {
      type: DT_FLOAT
    }
  }
  attr {
    key: "value"
    value {
      tensor {
        dtype: DT_FLOAT
        tensor_shape {
        }
        float_val: 0.0589255653321743
      }
    }
  }
}
node {
  name: "conv2d_6/kernel/Initializer/truncated_normal/TruncatedNormal"
  op: "TruncatedNormal"
  input: "conv2d_6/kernel/Initializer/truncated_normal/shape"
  attr {
    key: "T"
    value {
      type: DT_INT32
    }
  }
  attr {
    key: "_class"
    value {
      list {
        s: "loc:@conv2d_6/kernel"
      }
    }
  }
  attr {
    key: "dtype"
    value {
      type: DT_FLOAT
    }
  }
  attr {
    key: "seed"
    value {
      i: 0
    }
  }
  attr {
    key: "seed2"
    value {
      i: 0
    }
  }
}
node {
  name: "conv2d_6/kernel/Initializer/truncated_normal/mul"
  op: "Mul"
  input: "conv2d_6/kernel/Initializer/truncated_normal/TruncatedNormal"
  input: "conv2d_6/kernel/Initializer/truncated_normal/stddev"
  attr {
    key: "T"
    value {
      type: DT_FLOAT
    }
  }
  attr {
    key: "_class"
    value {
      list {
        s: "loc:@conv2d_6/kernel"
      }
    }
  }
}
node {
  name: "conv2d_6/kernel/Initializer/truncated_normal"
  op: "Add"
  input: "conv2d_6/kernel/Initializer/truncated_normal/mul"
  input: "conv2d_6/kernel/Initializer/truncated_normal/mean"
  attr {
    key: "T"
    value {
      type: DT_FLOAT
    }
  }
  attr {
    key: "_class"
    value {
      list {
        s: "loc:@conv2d_6/kernel"
      }
    }
  }
}
node {
  name: "conv2d_6/kernel"
  op: "VariableV2"
  attr {
    key: "_class"
    value {
      list {
        s: "loc:@conv2d_6/kernel"
      }
    }
  }
  attr {
    key: "container"
    value {
      s: ""
    }
  }
  attr {
    key: "dtype"
    value {
      type: DT_FLOAT
    }
  }
  attr {
    key: "shape"
    value {
      shape {
        dim {
          size: 3
        }
        dim {
          size: 3
        }
        dim {
          size: 32
        }
        dim {
          size: 32
        }
      }
    }
  }
  attr {
    key: "shared_name"
    value {
      s: ""
    }
  }
}
node {
  name: "conv2d_6/kernel/Assign"
  op: "Assign"
  input: "conv2d_6/kernel"
  input: "conv2d_6/kernel/Initializer/truncated_normal"
  attr {
    key: "T"
    value {
      type: DT_FLOAT
    }
  }
  attr {
    key: "_class"
    value {
      list {
        s: "loc:@conv2d_6/kernel"
      }
    }
  }
  attr {
    key: "use_locking"
    value {
      b: true
    }
  }
  attr {
    key: "validate_shape"
    value {
      b: true
    }
  }
}
node {
  name: "conv2d_6/kernel/read"
  op: "Identity"
  input: "conv2d_6/kernel"
  attr {
    key: "T"
    value {
      type: DT_FLOAT
    }
  }
  attr {
    key: "_class"
    value {
      list {
        s: "loc:@conv2d_6/kernel"
      }
    }
  }
}
node {
  name: "conv2d_7/convolution/Shape"
  op: "Const"
  attr {
    key: "dtype"
    value {
      type: DT_INT32
    }
  }
  attr {
    key: "value"
    value {
      tensor {
        dtype: DT_INT32
        tensor_shape {
          dim {
            size: 4
          }
        }
        tensor_content: "\003\000\000\000\003\000\000\000 \000\000\000 \000\000\000"
      }
    }
  }
}
node {
  name: "conv2d_7/convolution/dilation_rate"
  op: "Const"
  attr {
    key: "dtype"
    value {
      type: DT_INT32
    }
  }
  attr {
    key: "value"
    value {
      tensor {
        dtype: DT_INT32
        tensor_shape {
          dim {
            size: 2
          }
        }
        tensor_content: "\001\000\000\000\001\000\000\000"
      }
    }
  }
}
node {
  name: "conv2d_7/convolution"
  op: "Conv2D"
  input: "Relu_3"
  input: "conv2d_6/kernel/read"
  attr {
    key: "T"
    value {
      type: DT_FLOAT
    }
  }
  attr {
    key: "data_format"
    value {
      s: "NCHW"
    }
  }
  attr {
    key: "padding"
    value {
      s: "SAME"
    }
  }
  attr {
    key: "strides"
    value {
      list {
        i: 1
        i: 1
        i: 1
        i: 1
      }
    }
  }
  attr {
    key: "use_cudnn_on_gpu"
    value {
      b: true
    }
  }
}
node {
  name: "add_1"
  op: "Add"
  input: "conv2d_7/convolution"
  input: "conv2d_5/convolution"
  attr {
    key: "T"
    value {
      type: DT_FLOAT
    }
  }
}
node {
  name: "block_layer2"
  op: "Identity"
  input: "add_1"
  attr {
    key: "T"
    value {
      type: DT_FLOAT
    }
  }
}
node {
  name: "batch_normalization_4/gamma/Initializer/ones"
  op: "Const"
  attr {
    key: "_class"
    value {
      list {
        s: "loc:@batch_normalization_4/gamma"
      }
    }
  }
  attr {
    key: "dtype"
    value {
      type: DT_FLOAT
    }
  }
  attr {
    key: "value"
    value {
      tensor {
        dtype: DT_FLOAT
        tensor_shape {
          dim {
            size: 32
          }
        }
        float_val: 1.0
      }
    }
  }
}
node {
  name: "batch_normalization_4/gamma"
  op: "VariableV2"
  attr {
    key: "_class"
    value {
      list {
        s: "loc:@batch_normalization_4/gamma"
      }
    }
  }
  attr {
    key: "container"
    value {
      s: ""
    }
  }
  attr {
    key: "dtype"
    value {
      type: DT_FLOAT
    }
  }
  attr {
    key: "shape"
    value {
      shape {
        dim {
          size: 32
        }
      }
    }
  }
  attr {
    key: "shared_name"
    value {
      s: ""
    }
  }
}
node {
  name: "batch_normalization_4/gamma/Assign"
  op: "Assign"
  input: "batch_normalization_4/gamma"
  input: "batch_normalization_4/gamma/Initializer/ones"
  attr {
    key: "T"
    value {
      type: DT_FLOAT
    }
  }
  attr {
    key: "_class"
    value {
      list {
        s: "loc:@batch_normalization_4/gamma"
      }
    }
  }
  attr {
    key: "use_locking"
    value {
      b: true
    }
  }
  attr {
    key: "validate_shape"
    value {
      b: true
    }
  }
}
node {
  name: "batch_normalization_4/gamma/read"
  op: "Identity"
  input: "batch_normalization_4/gamma"
  attr {
    key: "T"
    value {
      type: DT_FLOAT
    }
  }
  attr {
    key: "_class"
    value {
      list {
        s: "loc:@batch_normalization_4/gamma"
      }
    }
  }
}
node {
  name: "batch_normalization_4/beta/Initializer/zeros"
  op: "Const"
  attr {
    key: "_class"
    value {
      list {
        s: "loc:@batch_normalization_4/beta"
      }
    }
  }
  attr {
    key: "dtype"
    value {
      type: DT_FLOAT
    }
  }
  attr {
    key: "value"
    value {
      tensor {
        dtype: DT_FLOAT
        tensor_shape {
          dim {
            size: 32
          }
        }
        float_val: 0.0
      }
    }
  }
}
node {
  name: "batch_normalization_4/beta"
  op: "VariableV2"
  attr {
    key: "_class"
    value {
      list {
        s: "loc:@batch_normalization_4/beta"
      }
    }
  }
  attr {
    key: "container"
    value {
      s: ""
    }
  }
  attr {
    key: "dtype"
    value {
      type: DT_FLOAT
    }
  }
  attr {
    key: "shape"
    value {
      shape {
        dim {
          size: 32
        }
      }
    }
  }
  attr {
    key: "shared_name"
    value {
      s: ""
    }
  }
}
node {
  name: "batch_normalization_4/beta/Assign"
  op: "Assign"
  input: "batch_normalization_4/beta"
  input: "batch_normalization_4/beta/Initializer/zeros"
  attr {
    key: "T"
    value {
      type: DT_FLOAT
    }
  }
  attr {
    key: "_class"
    value {
      list {
        s: "loc:@batch_normalization_4/beta"
      }
    }
  }
  attr {
    key: "use_locking"
    value {
      b: true
    }
  }
  attr {
    key: "validate_shape"
    value {
      b: true
    }
  }
}
node {
  name: "batch_normalization_4/beta/read"
  op: "Identity"
  input: "batch_normalization_4/beta"
  attr {
    key: "T"
    value {
      type: DT_FLOAT
    }
  }
  attr {
    key: "_class"
    value {
      list {
        s: "loc:@batch_normalization_4/beta"
      }
    }
  }
}
node {
  name: "batch_normalization_4/moving_mean/Initializer/zeros"
  op: "Const"
  attr {
    key: "_class"
    value {
      list {
        s: "loc:@batch_normalization_4/moving_mean"
      }
    }
  }
  attr {
    key: "dtype"
    value {
      type: DT_FLOAT
    }
  }
  attr {
    key: "value"
    value {
      tensor {
        dtype: DT_FLOAT
        tensor_shape {
          dim {
            size: 32
          }
        }
        float_val: 0.0
      }
    }
  }
}
node {
  name: "batch_normalization_4/moving_mean"
  op: "VariableV2"
  attr {
    key: "_class"
    value {
      list {
        s: "loc:@batch_normalization_4/moving_mean"
      }
    }
  }
  attr {
    key: "container"
    value {
      s: ""
    }
  }
  attr {
    key: "dtype"
    value {
      type: DT_FLOAT
    }
  }
  attr {
    key: "shape"
    value {
      shape {
        dim {
          size: 32
        }
      }
    }
  }
  attr {
    key: "shared_name"
    value {
      s: ""
    }
  }
}
node {
  name: "batch_normalization_4/moving_mean/Assign"
  op: "Assign"
  input: "batch_normalization_4/moving_mean"
  input: "batch_normalization_4/moving_mean/Initializer/zeros"
  attr {
    key: "T"
    value {
      type: DT_FLOAT
    }
  }
  attr {
    key: "_class"
    value {
      list {
        s: "loc:@batch_normalization_4/moving_mean"
      }
    }
  }
  attr {
    key: "use_locking"
    value {
      b: true
    }
  }
  attr {
    key: "validate_shape"
    value {
      b: true
    }
  }
}
node {
  name: "batch_normalization_4/moving_mean/read"
  op: "Identity"
  input: "batch_normalization_4/moving_mean"
  attr {
    key: "T"
    value {
      type: DT_FLOAT
    }
  }
  attr {
    key: "_class"
    value {
      list {
        s: "loc:@batch_normalization_4/moving_mean"
      }
    }
  }
}
node {
  name: "batch_normalization_4/moving_variance/Initializer/ones"
  op: "Const"
  attr {
    key: "_class"
    value {
      list {
        s: "loc:@batch_normalization_4/moving_variance"
      }
    }
  }
  attr {
    key: "dtype"
    value {
      type: DT_FLOAT
    }
  }
  attr {
    key: "value"
    value {
      tensor {
        dtype: DT_FLOAT
        tensor_shape {
          dim {
            size: 32
          }
        }
        float_val: 1.0
      }
    }
  }
}
node {
  name: "batch_normalization_4/moving_variance"
  op: "VariableV2"
  attr {
    key: "_class"
    value {
      list {
        s: "loc:@batch_normalization_4/moving_variance"
      }
    }
  }
  attr {
    key: "container"
    value {
      s: ""
    }
  }
  attr {
    key: "dtype"
    value {
      type: DT_FLOAT
    }
  }
  attr {
    key: "shape"
    value {
      shape {
        dim {
          size: 32
        }
      }
    }
  }
  attr {
    key: "shared_name"
    value {
      s: ""
    }
  }
}
node {
  name: "batch_normalization_4/moving_variance/Assign"
  op: "Assign"
  input: "batch_normalization_4/moving_variance"
  input: "batch_normalization_4/moving_variance/Initializer/ones"
  attr {
    key: "T"
    value {
      type: DT_FLOAT
    }
  }
  attr {
    key: "_class"
    value {
      list {
        s: "loc:@batch_normalization_4/moving_variance"
      }
    }
  }
  attr {
    key: "use_locking"
    value {
      b: true
    }
  }
  attr {
    key: "validate_shape"
    value {
      b: true
    }
  }
}
node {
  name: "batch_normalization_4/moving_variance/read"
  op: "Identity"
  input: "batch_normalization_4/moving_variance"
  attr {
    key: "T"
    value {
      type: DT_FLOAT
    }
  }
  attr {
    key: "_class"
    value {
      list {
        s: "loc:@batch_normalization_4/moving_variance"
      }
    }
  }
}
node {
  name: "batch_normalization_5/Const"
  op: "Const"
  attr {
    key: "dtype"
    value {
      type: DT_FLOAT
    }
  }
  attr {
    key: "value"
    value {
      tensor {
        dtype: DT_FLOAT
        tensor_shape {
          dim {
          }
        }
      }
    }
  }
}
node {
  name: "batch_normalization_5/Const_1"
  op: "Const"
  attr {
    key: "dtype"
    value {
      type: DT_FLOAT
    }
  }
  attr {
    key: "value"
    value {
      tensor {
        dtype: DT_FLOAT
        tensor_shape {
          dim {
          }
        }
      }
    }
  }
}
node {
  name: "batch_normalization_5/FusedBatchNorm"
  op: "FusedBatchNorm"
  input: "block_layer2"
  input: "batch_normalization_4/gamma/read"
  input: "batch_normalization_4/beta/read"
  input: "batch_normalization_5/Const"
  input: "batch_normalization_5/Const_1"
  attr {
    key: "T"
    value {
      type: DT_FLOAT
    }
  }
  attr {
    key: "data_format"
    value {
      s: "NCHW"
    }
  }
  attr {
    key: "epsilon"
    value {
      f: 1.0009999641624745e-05
    }
  }
  attr {
    key: "is_training"
    value {
      b: true
    }
  }
}
node {
  name: "batch_normalization_5/AssignMovingAvg/read"
  op: "Identity"
  input: "batch_normalization_4/moving_mean"
  attr {
    key: "T"
    value {
      type: DT_FLOAT
    }
  }
  attr {
    key: "_class"
    value {
      list {
        s: "loc:@batch_normalization_4/moving_mean"
      }
    }
  }
}
node {
  name: "batch_normalization_5/AssignMovingAvg/sub"
  op: "Sub"
  input: "batch_normalization_5/AssignMovingAvg/read"
  input: "batch_normalization_5/FusedBatchNorm:1"
  attr {
    key: "T"
    value {
      type: DT_FLOAT
    }
  }
  attr {
    key: "_class"
    value {
      list {
        s: "loc:@batch_normalization_4/moving_mean"
      }
    }
  }
}
node {
  name: "batch_normalization_5/AssignMovingAvg/mul/y"
  op: "Const"
  attr {
    key: "_class"
    value {
      list {
        s: "loc:@batch_normalization_4/moving_mean"
      }
    }
  }
  attr {
    key: "dtype"
    value {
      type: DT_FLOAT
    }
  }
  attr {
    key: "value"
    value {
      tensor {
        dtype: DT_FLOAT
        tensor_shape {
        }
        float_val: 0.003000000026077032
      }
    }
  }
}
node {
  name: "batch_normalization_5/AssignMovingAvg/mul"
  op: "Mul"
  input: "batch_normalization_5/AssignMovingAvg/sub"
  input: "batch_normalization_5/AssignMovingAvg/mul/y"
  attr {
    key: "T"
    value {
      type: DT_FLOAT
    }
  }
  attr {
    key: "_class"
    value {
      list {
        s: "loc:@batch_normalization_4/moving_mean"
      }
    }
  }
}
node {
  name: "batch_normalization_5/AssignMovingAvg"
  op: "AssignSub"
  input: "batch_normalization_4/moving_mean"
  input: "batch_normalization_5/AssignMovingAvg/mul"
  attr {
    key: "T"
    value {
      type: DT_FLOAT
    }
  }
  attr {
    key: "_class"
    value {
      list {
        s: "loc:@batch_normalization_4/moving_mean"
      }
    }
  }
  attr {
    key: "use_locking"
    value {
      b: false
    }
  }
}
node {
  name: "batch_normalization_5/AssignMovingAvg_1/read"
  op: "Identity"
  input: "batch_normalization_4/moving_variance"
  attr {
    key: "T"
    value {
      type: DT_FLOAT
    }
  }
  attr {
    key: "_class"
    value {
      list {
        s: "loc:@batch_normalization_4/moving_variance"
      }
    }
  }
}
node {
  name: "batch_normalization_5/AssignMovingAvg_1/sub"
  op: "Sub"
  input: "batch_normalization_5/AssignMovingAvg_1/read"
  input: "batch_normalization_5/FusedBatchNorm:2"
  attr {
    key: "T"
    value {
      type: DT_FLOAT
    }
  }
  attr {
    key: "_class"
    value {
      list {
        s: "loc:@batch_normalization_4/moving_variance"
      }
    }
  }
}
node {
  name: "batch_normalization_5/AssignMovingAvg_1/mul/y"
  op: "Const"
  attr {
    key: "_class"
    value {
      list {
        s: "loc:@batch_normalization_4/moving_variance"
      }
    }
  }
  attr {
    key: "dtype"
    value {
      type: DT_FLOAT
    }
  }
  attr {
    key: "value"
    value {
      tensor {
        dtype: DT_FLOAT
        tensor_shape {
        }
        float_val: 0.003000000026077032
      }
    }
  }
}
node {
  name: "batch_normalization_5/AssignMovingAvg_1/mul"
  op: "Mul"
  input: "batch_normalization_5/AssignMovingAvg_1/sub"
  input: "batch_normalization_5/AssignMovingAvg_1/mul/y"
  attr {
    key: "T"
    value {
      type: DT_FLOAT
    }
  }
  attr {
    key: "_class"
    value {
      list {
        s: "loc:@batch_normalization_4/moving_variance"
      }
    }
  }
}
node {
  name: "batch_normalization_5/AssignMovingAvg_1"
  op: "AssignSub"
  input: "batch_normalization_4/moving_variance"
  input: "batch_normalization_5/AssignMovingAvg_1/mul"
  attr {
    key: "T"
    value {
      type: DT_FLOAT
    }
  }
  attr {
    key: "_class"
    value {
      list {
        s: "loc:@batch_normalization_4/moving_variance"
      }
    }
  }
  attr {
    key: "use_locking"
    value {
      b: false
    }
  }
}
node {
  name: "Relu_4"
  op: "Relu"
  input: "batch_normalization_5/FusedBatchNorm"
  attr {
    key: "T"
    value {
      type: DT_FLOAT
    }
  }
}
node {
  name: "Pad_2/paddings"
  op: "Const"
  attr {
    key: "dtype"
    value {
      type: DT_INT32
    }
  }
  attr {
    key: "value"
    value {
      tensor {
        dtype: DT_INT32
        tensor_shape {
          dim {
            size: 4
          }
          dim {
            size: 2
          }
        }
        tensor_content: "…"
      }
    }
  }
}
node {
  name: "Pad_2"
  op: "Pad"
  input: "Relu_4"
  input: "Pad_2/paddings"
  attr {
    key: "T"
    value {
      type: DT_FLOAT
    }
  }
  attr {
    key: "Tpaddings"
    value {
      type: DT_INT32
    }
  }
}
node {
  name: "conv2d_7/kernel/Initializer/truncated_normal/shape"
  op: "Const"
  attr {
    key: "_class"
    value {
      list {
        s: "loc:@conv2d_7/kernel"
      }
    }
  }
  attr {
    key: "dtype"
    value {
      type: DT_INT32
    }
  }
  attr {
    key: "value"
    value {
      tensor {
        dtype: DT_INT32
        tensor_shape {
          dim {
            size: 4
          }
        }
        tensor_content: "\001\000\000\000\001\000\000\000 \000\000\000@\000\000\000"
      }
    }
  }
}
node {
  name: "conv2d_7/kernel/Initializer/truncated_normal/mean"
  op: "Const"
  attr {
    key: "_class"
    value {
      list {
        s: "loc:@conv2d_7/kernel"
      }
    }
  }
  attr {
    key: "dtype"
    value {
      type: DT_FLOAT
    }
  }
  attr {
    key: "value"
    value {
      tensor {
        dtype: DT_FLOAT
        tensor_shape {
        }
        float_val: 0.0
      }
    }
  }
}
node {
  name: "conv2d_7/kernel/Initializer/truncated_normal/stddev"
  op: "Const"
  attr {
    key: "_class"
    value {
      list {
        s: "loc:@conv2d_7/kernel"
      }
    }
  }
  attr {
    key: "dtype"
    value {
      type: DT_FLOAT
    }
  }
  attr {
    key: "value"
    value {
      tensor {
        dtype: DT_FLOAT
        tensor_shape {
        }
        float_val: 0.1767766922712326
      }
    }
  }
}
node {
  name: "conv2d_7/kernel/Initializer/truncated_normal/TruncatedNormal"
  op: "TruncatedNormal"
  input: "conv2d_7/kernel/Initializer/truncated_normal/shape"
  attr {
    key: "T"
    value {
      type: DT_INT32
    }
  }
  attr {
    key: "_class"
    value {
      list {
        s: "loc:@conv2d_7/kernel"
      }
    }
  }
  attr {
    key: "dtype"
    value {
      type: DT_FLOAT
    }
  }
  attr {
    key: "seed"
    value {
      i: 0
    }
  }
  attr {
    key: "seed2"
    value {
      i: 0
    }
  }
}
node {
  name: "conv2d_7/kernel/Initializer/truncated_normal/mul"
  op: "Mul"
  input: "conv2d_7/kernel/Initializer/truncated_normal/TruncatedNormal"
  input: "conv2d_7/kernel/Initializer/truncated_normal/stddev"
  attr {
    key: "T"
    value {
      type: DT_FLOAT
    }
  }
  attr {
    key: "_class"
    value {
      list {
        s: "loc:@conv2d_7/kernel"
      }
    }
  }
}
node {
  name: "conv2d_7/kernel/Initializer/truncated_normal"
  op: "Add"
  input: "conv2d_7/kernel/Initializer/truncated_normal/mul"
  input: "conv2d_7/kernel/Initializer/truncated_normal/mean"
  attr {
    key: "T"
    value {
      type: DT_FLOAT
    }
  }
  attr {
    key: "_class"
    value {
      list {
        s: "loc:@conv2d_7/kernel"
      }
    }
  }
}
node {
  name: "conv2d_7/kernel"
  op: "VariableV2"
  attr {
    key: "_class"
    value {
      list {
        s: "loc:@conv2d_7/kernel"
      }
    }
  }
  attr {
    key: "container"
    value {
      s: ""
    }
  }
  attr {
    key: "dtype"
    value {
      type: DT_FLOAT
    }
  }
  attr {
    key: "shape"
    value {
      shape {
        dim {
          size: 1
        }
        dim {
          size: 1
        }
        dim {
          size: 32
        }
        dim {
          size: 64
        }
      }
    }
  }
  attr {
    key: "shared_name"
    value {
      s: ""
    }
  }
}
node {
  name: "conv2d_7/kernel/Assign"
  op: "Assign"
  input: "conv2d_7/kernel"
  input: "conv2d_7/kernel/Initializer/truncated_normal"
  attr {
    key: "T"
    value {
      type: DT_FLOAT
    }
  }
  attr {
    key: "_class"
    value {
      list {
        s: "loc:@conv2d_7/kernel"
      }
    }
  }
  attr {
    key: "use_locking"
    value {
      b: true
    }
  }
  attr {
    key: "validate_shape"
    value {
      b: true
    }
  }
}
node {
  name: "conv2d_7/kernel/read"
  op: "Identity"
  input: "conv2d_7/kernel"
  attr {
    key: "T"
    value {
      type: DT_FLOAT
    }
  }
  attr {
    key: "_class"
    value {
      list {
        s: "loc:@conv2d_7/kernel"
      }
    }
  }
}
node {
  name: "conv2d_8/convolution/Shape"
  op: "Const"
  attr {
    key: "dtype"
    value {
      type: DT_INT32
    }
  }
  attr {
    key: "value"
    value {
      tensor {
        dtype: DT_INT32
        tensor_shape {
          dim {
            size: 4
          }
        }
        tensor_content: "\001\000\000\000\001\000\000\000 \000\000\000@\000\000\000"
      }
    }
  }
}
node {
  name: "conv2d_8/convolution/dilation_rate"
  op: "Const"
  attr {
    key: "dtype"
    value {
      type: DT_INT32
    }
  }
  attr {
    key: "value"
    value {
      tensor {
        dtype: DT_INT32
        tensor_shape {
          dim {
            size: 2
          }
        }
        tensor_content: "\001\000\000\000\001\000\000\000"
      }
    }
  }
}
node {
  name: "conv2d_8/convolution"
  op: "Conv2D"
  input: "Pad_2"
  input: "conv2d_7/kernel/read"
  attr {
    key: "T"
    value {
      type: DT_FLOAT
    }
  }
  attr {
    key: "data_format"
    value {
      s: "NCHW"
    }
  }
  attr {
    key: "padding"
    value {
      s: "VALID"
    }
  }
  attr {
    key: "strides"
    value {
      list {
        i: 1
        i: 1
        i: 2
        i: 2
      }
    }
  }
  attr {
    key: "use_cudnn_on_gpu"
    value {
      b: true
    }
  }
}
node {
  name: "Pad_3/paddings"
  op: "Const"
  attr {
    key: "dtype"
    value {
      type: DT_INT32
    }
  }
  attr {
    key: "value"
    value {
      tensor {
        dtype: DT_INT32
        tensor_shape {
          dim {
            size: 4
          }
          dim {
            size: 2
          }
        }
        tensor_content: "…"
      }
    }
  }
}
node {
  name: "Pad_3"
  op: "Pad"
  input: "Relu_4"
  input: "Pad_3/paddings"
  attr {
    key: "T"
    value {
      type: DT_FLOAT
    }
  }
  attr {
    key: "Tpaddings"
    value {
      type: DT_INT32
    }
  }
}
node {
  name: "conv2d_8/kernel/Initializer/truncated_normal/shape"
  op: "Const"
  attr {
    key: "_class"
    value {
      list {
        s: "loc:@conv2d_8/kernel"
      }
    }
  }
  attr {
    key: "dtype"
    value {
      type: DT_INT32
    }
  }
  attr {
    key: "value"
    value {
      tensor {
        dtype: DT_INT32
        tensor_shape {
          dim {
            size: 4
          }
        }
        tensor_content: "\003\000\000\000\003\000\000\000 \000\000\000@\000\000\000"
      }
    }
  }
}
node {
  name: "conv2d_8/kernel/Initializer/truncated_normal/mean"
  op: "Const"
  attr {
    key: "_class"
    value {
      list {
        s: "loc:@conv2d_8/kernel"
      }
    }
  }
  attr {
    key: "dtype"
    value {
      type: DT_FLOAT
    }
  }
  attr {
    key: "value"
    value {
      tensor {
        dtype: DT_FLOAT
        tensor_shape {
        }
        float_val: 0.0
      }
    }
  }
}
node {
  name: "conv2d_8/kernel/Initializer/truncated_normal/stddev"
  op: "Const"
  attr {
    key: "_class"
    value {
      list {
        s: "loc:@conv2d_8/kernel"
      }
    }
  }
  attr {
    key: "dtype"
    value {
      type: DT_FLOAT
    }
  }
  attr {
    key: "value"
    value {
      tensor {
        dtype: DT_FLOAT
        tensor_shape {
        }
        float_val: 0.0589255653321743
      }
    }
  }
}
node {
  name: "conv2d_8/kernel/Initializer/truncated_normal/TruncatedNormal"
  op: "TruncatedNormal"
  input: "conv2d_8/kernel/Initializer/truncated_normal/shape"
  attr {
    key: "T"
    value {
      type: DT_INT32
    }
  }
  attr {
    key: "_class"
    value {
      list {
        s: "loc:@conv2d_8/kernel"
      }
    }
  }
  attr {
    key: "dtype"
    value {
      type: DT_FLOAT
    }
  }
  attr {
    key: "seed"
    value {
      i: 0
    }
  }
  attr {
    key: "seed2"
    value {
      i: 0
    }
  }
}
node {
  name: "conv2d_8/kernel/Initializer/truncated_normal/mul"
  op: "Mul"
  input: "conv2d_8/kernel/Initializer/truncated_normal/TruncatedNormal"
  input: "conv2d_8/kernel/Initializer/truncated_normal/stddev"
  attr {
    key: "T"
    value {
      type: DT_FLOAT
    }
  }
  attr {
    key: "_class"
    value {
      list {
        s: "loc:@conv2d_8/kernel"
      }
    }
  }
}
node {
  name: "conv2d_8/kernel/Initializer/truncated_normal"
  op: "Add"
  input: "conv2d_8/kernel/Initializer/truncated_normal/mul"
  input: "conv2d_8/kernel/Initializer/truncated_normal/mean"
  attr {
    key: "T"
    value {
      type: DT_FLOAT
    }
  }
  attr {
    key: "_class"
    value {
      list {
        s: "loc:@conv2d_8/kernel"
      }
    }
  }
}
node {
  name: "conv2d_8/kernel"
  op: "VariableV2"
  attr {
    key: "_class"
    value {
      list {
        s: "loc:@conv2d_8/kernel"
      }
    }
  }
  attr {
    key: "container"
    value {
      s: ""
    }
  }
  attr {
    key: "dtype"
    value {
      type: DT_FLOAT
    }
  }
  attr {
    key: "shape"
    value {
      shape {
        dim {
          size: 3
        }
        dim {
          size: 3
        }
        dim {
          size: 32
        }
        dim {
          size: 64
        }
      }
    }
  }
  attr {
    key: "shared_name"
    value {
      s: ""
    }
  }
}
node {
  name: "conv2d_8/kernel/Assign"
  op: "Assign"
  input: "conv2d_8/kernel"
  input: "conv2d_8/kernel/Initializer/truncated_normal"
  attr {
    key: "T"
    value {
      type: DT_FLOAT
    }
  }
  attr {
    key: "_class"
    value {
      list {
        s: "loc:@conv2d_8/kernel"
      }
    }
  }
  attr {
    key: "use_locking"
    value {
      b: true
    }
  }
  attr {
    key: "validate_shape"
    value {
      b: true
    }
  }
}
node {
  name: "conv2d_8/kernel/read"
  op: "Identity"
  input: "conv2d_8/kernel"
  attr {
    key: "T"
    value {
      type: DT_FLOAT
    }
  }
  attr {
    key: "_class"
    value {
      list {
        s: "loc:@conv2d_8/kernel"
      }
    }
  }
}
node {
  name: "conv2d_9/convolution/Shape"
  op: "Const"
  attr {
    key: "dtype"
    value {
      type: DT_INT32
    }
  }
  attr {
    key: "value"
    value {
      tensor {
        dtype: DT_INT32
        tensor_shape {
          dim {
            size: 4
          }
        }
        tensor_content: "\003\000\000\000\003\000\000\000 \000\000\000@\000\000\000"
      }
    }
  }
}
node {
  name: "conv2d_9/convolution/dilation_rate"
  op: "Const"
  attr {
    key: "dtype"
    value {
      type: DT_INT32
    }
  }
  attr {
    key: "value"
    value {
      tensor {
        dtype: DT_INT32
        tensor_shape {
          dim {
            size: 2
          }
        }
        tensor_content: "\001\000\000\000\001\000\000\000"
      }
    }
  }
}
node {
  name: "conv2d_9/convolution"
  op: "Conv2D"
  input: "Pad_3"
  input: "conv2d_8/kernel/read"
  attr {
    key: "T"
    value {
      type: DT_FLOAT
    }
  }
  attr {
    key: "data_format"
    value {
      s: "NCHW"
    }
  }
  attr {
    key: "padding"
    value {
      s: "VALID"
    }
  }
  attr {
    key: "strides"
    value {
      list {
        i: 1
        i: 1
        i: 2
        i: 2
      }
    }
  }
  attr {
    key: "use_cudnn_on_gpu"
    value {
      b: true
    }
  }
}
node {
  name: "batch_normalization_5/gamma/Initializer/ones"
  op: "Const"
  attr {
    key: "_class"
    value {
      list {
        s: "loc:@batch_normalization_5/gamma"
      }
    }
  }
  attr {
    key: "dtype"
    value {
      type: DT_FLOAT
    }
  }
  attr {
    key: "value"
    value {
      tensor {
        dtype: DT_FLOAT
        tensor_shape {
          dim {
            size: 64
          }
        }
        float_val: 1.0
      }
    }
  }
}
node {
  name: "batch_normalization_5/gamma"
  op: "VariableV2"
  attr {
    key: "_class"
    value {
      list {
        s: "loc:@batch_normalization_5/gamma"
      }
    }
  }
  attr {
    key: "container"
    value {
      s: ""
    }
  }
  attr {
    key: "dtype"
    value {
      type: DT_FLOAT
    }
  }
  attr {
    key: "shape"
    value {
      shape {
        dim {
          size: 64
        }
      }
    }
  }
  attr {
    key: "shared_name"
    value {
      s: ""
    }
  }
}
node {
  name: "batch_normalization_5/gamma/Assign"
  op: "Assign"
  input: "batch_normalization_5/gamma"
  input: "batch_normalization_5/gamma/Initializer/ones"
  attr {
    key: "T"
    value {
      type: DT_FLOAT
    }
  }
  attr {
    key: "_class"
    value {
      list {
        s: "loc:@batch_normalization_5/gamma"
      }
    }
  }
  attr {
    key: "use_locking"
    value {
      b: true
    }
  }
  attr {
    key: "validate_shape"
    value {
      b: true
    }
  }
}
node {
  name: "batch_normalization_5/gamma/read"
  op: "Identity"
  input: "batch_normalization_5/gamma"
  attr {
    key: "T"
    value {
      type: DT_FLOAT
    }
  }
  attr {
    key: "_class"
    value {
      list {
        s: "loc:@batch_normalization_5/gamma"
      }
    }
  }
}
node {
  name: "batch_normalization_5/beta/Initializer/zeros"
  op: "Const"
  attr {
    key: "_class"
    value {
      list {
        s: "loc:@batch_normalization_5/beta"
      }
    }
  }
  attr {
    key: "dtype"
    value {
      type: DT_FLOAT
    }
  }
  attr {
    key: "value"
    value {
      tensor {
        dtype: DT_FLOAT
        tensor_shape {
          dim {
            size: 64
          }
        }
        float_val: 0.0
      }
    }
  }
}
node {
  name: "batch_normalization_5/beta"
  op: "VariableV2"
  attr {
    key: "_class"
    value {
      list {
        s: "loc:@batch_normalization_5/beta"
      }
    }
  }
  attr {
    key: "container"
    value {
      s: ""
    }
  }
  attr {
    key: "dtype"
    value {
      type: DT_FLOAT
    }
  }
  attr {
    key: "shape"
    value {
      shape {
        dim {
          size: 64
        }
      }
    }
  }
  attr {
    key: "shared_name"
    value {
      s: ""
    }
  }
}
node {
  name: "batch_normalization_5/beta/Assign"
  op: "Assign"
  input: "batch_normalization_5/beta"
  input: "batch_normalization_5/beta/Initializer/zeros"
  attr {
    key: "T"
    value {
      type: DT_FLOAT
    }
  }
  attr {
    key: "_class"
    value {
      list {
        s: "loc:@batch_normalization_5/beta"
      }
    }
  }
  attr {
    key: "use_locking"
    value {
      b: true
    }
  }
  attr {
    key: "validate_shape"
    value {
      b: true
    }
  }
}
node {
  name: "batch_normalization_5/beta/read"
  op: "Identity"
  input: "batch_normalization_5/beta"
  attr {
    key: "T"
    value {
      type: DT_FLOAT
    }
  }
  attr {
    key: "_class"
    value {
      list {
        s: "loc:@batch_normalization_5/beta"
      }
    }
  }
}
node {
  name: "batch_normalization_5/moving_mean/Initializer/zeros"
  op: "Const"
  attr {
    key: "_class"
    value {
      list {
        s: "loc:@batch_normalization_5/moving_mean"
      }
    }
  }
  attr {
    key: "dtype"
    value {
      type: DT_FLOAT
    }
  }
  attr {
    key: "value"
    value {
      tensor {
        dtype: DT_FLOAT
        tensor_shape {
          dim {
            size: 64
          }
        }
        float_val: 0.0
      }
    }
  }
}
node {
  name: "batch_normalization_5/moving_mean"
  op: "VariableV2"
  attr {
    key: "_class"
    value {
      list {
        s: "loc:@batch_normalization_5/moving_mean"
      }
    }
  }
  attr {
    key: "container"
    value {
      s: ""
    }
  }
  attr {
    key: "dtype"
    value {
      type: DT_FLOAT
    }
  }
  attr {
    key: "shape"
    value {
      shape {
        dim {
          size: 64
        }
      }
    }
  }
  attr {
    key: "shared_name"
    value {
      s: ""
    }
  }
}
node {
  name: "batch_normalization_5/moving_mean/Assign"
  op: "Assign"
  input: "batch_normalization_5/moving_mean"
  input: "batch_normalization_5/moving_mean/Initializer/zeros"
  attr {
    key: "T"
    value {
      type: DT_FLOAT
    }
  }
  attr {
    key: "_class"
    value {
      list {
        s: "loc:@batch_normalization_5/moving_mean"
      }
    }
  }
  attr {
    key: "use_locking"
    value {
      b: true
    }
  }
  attr {
    key: "validate_shape"
    value {
      b: true
    }
  }
}
node {
  name: "batch_normalization_5/moving_mean/read"
  op: "Identity"
  input: "batch_normalization_5/moving_mean"
  attr {
    key: "T"
    value {
      type: DT_FLOAT
    }
  }
  attr {
    key: "_class"
    value {
      list {
        s: "loc:@batch_normalization_5/moving_mean"
      }
    }
  }
}
node {
  name: "batch_normalization_5/moving_variance/Initializer/ones"
  op: "Const"
  attr {
    key: "_class"
    value {
      list {
        s: "loc:@batch_normalization_5/moving_variance"
      }
    }
  }
  attr {
    key: "dtype"
    value {
      type: DT_FLOAT
    }
  }
  attr {
    key: "value"
    value {
      tensor {
        dtype: DT_FLOAT
        tensor_shape {
          dim {
            size: 64
          }
        }
        float_val: 1.0
      }
    }
  }
}
node {
  name: "batch_normalization_5/moving_variance"
  op: "VariableV2"
  attr {
    key: "_class"
    value {
      list {
        s: "loc:@batch_normalization_5/moving_variance"
      }
    }
  }
  attr {
    key: "container"
    value {
      s: ""
    }
  }
  attr {
    key: "dtype"
    value {
      type: DT_FLOAT
    }
  }
  attr {
    key: "shape"
    value {
      shape {
        dim {
          size: 64
        }
      }
    }
  }
  attr {
    key: "shared_name"
    value {
      s: ""
    }
  }
}
node {
  name: "batch_normalization_5/moving_variance/Assign"
  op: "Assign"
  input: "batch_normalization_5/moving_variance"
  input: "batch_normalization_5/moving_variance/Initializer/ones"
  attr {
    key: "T"
    value {
      type: DT_FLOAT
    }
  }
  attr {
    key: "_class"
    value {
      list {
        s: "loc:@batch_normalization_5/moving_variance"
      }
    }
  }
  attr {
    key: "use_locking"
    value {
      b: true
    }
  }
  attr {
    key: "validate_shape"
    value {
      b: true
    }
  }
}
node {
  name: "batch_normalization_5/moving_variance/read"
  op: "Identity"
  input: "batch_normalization_5/moving_variance"
  attr {
    key: "T"
    value {
      type: DT_FLOAT
    }
  }
  attr {
    key: "_class"
    value {
      list {
        s: "loc:@batch_normalization_5/moving_variance"
      }
    }
  }
}
node {
  name: "batch_normalization_6/Const"
  op: "Const"
  attr {
    key: "dtype"
    value {
      type: DT_FLOAT
    }
  }
  attr {
    key: "value"
    value {
      tensor {
        dtype: DT_FLOAT
        tensor_shape {
          dim {
          }
        }
      }
    }
  }
}
node {
  name: "batch_normalization_6/Const_1"
  op: "Const"
  attr {
    key: "dtype"
    value {
      type: DT_FLOAT
    }
  }
  attr {
    key: "value"
    value {
      tensor {
        dtype: DT_FLOAT
        tensor_shape {
          dim {
          }
        }
      }
    }
  }
}
node {
  name: "batch_normalization_6/FusedBatchNorm"
  op: "FusedBatchNorm"
  input: "conv2d_9/convolution"
  input: "batch_normalization_5/gamma/read"
  input: "batch_normalization_5/beta/read"
  input: "batch_normalization_6/Const"
  input: "batch_normalization_6/Const_1"
  attr {
    key: "T"
    value {
      type: DT_FLOAT
    }
  }
  attr {
    key: "data_format"
    value {
      s: "NCHW"
    }
  }
  attr {
    key: "epsilon"
    value {
      f: 1.0009999641624745e-05
    }
  }
  attr {
    key: "is_training"
    value {
      b: true
    }
  }
}
node {
  name: "batch_normalization_6/AssignMovingAvg/read"
  op: "Identity"
  input: "batch_normalization_5/moving_mean"
  attr {
    key: "T"
    value {
      type: DT_FLOAT
    }
  }
  attr {
    key: "_class"
    value {
      list {
        s: "loc:@batch_normalization_5/moving_mean"
      }
    }
  }
}
node {
  name: "batch_normalization_6/AssignMovingAvg/sub"
  op: "Sub"
  input: "batch_normalization_6/AssignMovingAvg/read"
  input: "batch_normalization_6/FusedBatchNorm:1"
  attr {
    key: "T"
    value {
      type: DT_FLOAT
    }
  }
  attr {
    key: "_class"
    value {
      list {
        s: "loc:@batch_normalization_5/moving_mean"
      }
    }
  }
}
node {
  name: "batch_normalization_6/AssignMovingAvg/mul/y"
  op: "Const"
  attr {
    key: "_class"
    value {
      list {
        s: "loc:@batch_normalization_5/moving_mean"
      }
    }
  }
  attr {
    key: "dtype"
    value {
      type: DT_FLOAT
    }
  }
  attr {
    key: "value"
    value {
      tensor {
        dtype: DT_FLOAT
        tensor_shape {
        }
        float_val: 0.003000000026077032
      }
    }
  }
}
node {
  name: "batch_normalization_6/AssignMovingAvg/mul"
  op: "Mul"
  input: "batch_normalization_6/AssignMovingAvg/sub"
  input: "batch_normalization_6/AssignMovingAvg/mul/y"
  attr {
    key: "T"
    value {
      type: DT_FLOAT
    }
  }
  attr {
    key: "_class"
    value {
      list {
        s: "loc:@batch_normalization_5/moving_mean"
      }
    }
  }
}
node {
  name: "batch_normalization_6/AssignMovingAvg"
  op: "AssignSub"
  input: "batch_normalization_5/moving_mean"
  input: "batch_normalization_6/AssignMovingAvg/mul"
  attr {
    key: "T"
    value {
      type: DT_FLOAT
    }
  }
  attr {
    key: "_class"
    value {
      list {
        s: "loc:@batch_normalization_5/moving_mean"
      }
    }
  }
  attr {
    key: "use_locking"
    value {
      b: false
    }
  }
}
node {
  name: "batch_normalization_6/AssignMovingAvg_1/read"
  op: "Identity"
  input: "batch_normalization_5/moving_variance"
  attr {
    key: "T"
    value {
      type: DT_FLOAT
    }
  }
  attr {
    key: "_class"
    value {
      list {
        s: "loc:@batch_normalization_5/moving_variance"
      }
    }
  }
}
node {
  name: "batch_normalization_6/AssignMovingAvg_1/sub"
  op: "Sub"
  input: "batch_normalization_6/AssignMovingAvg_1/read"
  input: "batch_normalization_6/FusedBatchNorm:2"
  attr {
    key: "T"
    value {
      type: DT_FLOAT
    }
  }
  attr {
    key: "_class"
    value {
      list {
        s: "loc:@batch_normalization_5/moving_variance"
      }
    }
  }
}
node {
  name: "batch_normalization_6/AssignMovingAvg_1/mul/y"
  op: "Const"
  attr {
    key: "_class"
    value {
      list {
        s: "loc:@batch_normalization_5/moving_variance"
      }
    }
  }
  attr {
    key: "dtype"
    value {
      type: DT_FLOAT
    }
  }
  attr {
    key: "value"
    value {
      tensor {
        dtype: DT_FLOAT
        tensor_shape {
        }
        float_val: 0.003000000026077032
      }
    }
  }
}
node {
  name: "batch_normalization_6/AssignMovingAvg_1/mul"
  op: "Mul"
  input: "batch_normalization_6/AssignMovingAvg_1/sub"
  input: "batch_normalization_6/AssignMovingAvg_1/mul/y"
  attr {
    key: "T"
    value {
      type: DT_FLOAT
    }
  }
  attr {
    key: "_class"
    value {
      list {
        s: "loc:@batch_normalization_5/moving_variance"
      }
    }
  }
}
node {
  name: "batch_normalization_6/AssignMovingAvg_1"
  op: "AssignSub"
  input: "batch_normalization_5/moving_variance"
  input: "batch_normalization_6/AssignMovingAvg_1/mul"
  attr {
    key: "T"
    value {
      type: DT_FLOAT
    }
  }
  attr {
    key: "_class"
    value {
      list {
        s: "loc:@batch_normalization_5/moving_variance"
      }
    }
  }
  attr {
    key: "use_locking"
    value {
      b: false
    }
  }
}
node {
  name: "Relu_5"
  op: "Relu"
  input: "batch_normalization_6/FusedBatchNorm"
  attr {
    key: "T"
    value {
      type: DT_FLOAT
    }
  }
}
node {
  name: "conv2d_9/kernel/Initializer/truncated_normal/shape"
  op: "Const"
  attr {
    key: "_class"
    value {
      list {
        s: "loc:@conv2d_9/kernel"
      }
    }
  }
  attr {
    key: "dtype"
    value {
      type: DT_INT32
    }
  }
  attr {
    key: "value"
    value {
      tensor {
        dtype: DT_INT32
        tensor_shape {
          dim {
            size: 4
          }
        }
        tensor_content: "\003\000\000\000\003\000\000\000@\000\000\000@\000\000\000"
      }
    }
  }
}
node {
  name: "conv2d_9/kernel/Initializer/truncated_normal/mean"
  op: "Const"
  attr {
    key: "_class"
    value {
      list {
        s: "loc:@conv2d_9/kernel"
      }
    }
  }
  attr {
    key: "dtype"
    value {
      type: DT_FLOAT
    }
  }
  attr {
    key: "value"
    value {
      tensor {
        dtype: DT_FLOAT
        tensor_shape {
        }
        float_val: 0.0
      }
    }
  }
}
node {
  name: "conv2d_9/kernel/Initializer/truncated_normal/stddev"
  op: "Const"
  attr {
    key: "_class"
    value {
      list {
        s: "loc:@conv2d_9/kernel"
      }
    }
  }
  attr {
    key: "dtype"
    value {
      type: DT_FLOAT
    }
  }
  attr {
    key: "value"
    value {
      tensor {
        dtype: DT_FLOAT
        tensor_shape {
        }
        float_val: 0.0416666679084301
      }
    }
  }
}
node {
  name: "conv2d_9/kernel/Initializer/truncated_normal/TruncatedNormal"
  op: "TruncatedNormal"
  input: "conv2d_9/kernel/Initializer/truncated_normal/shape"
  attr {
    key: "T"
    value {
      type: DT_INT32
    }
  }
  attr {
    key: "_class"
    value {
      list {
        s: "loc:@conv2d_9/kernel"
      }
    }
  }
  attr {
    key: "dtype"
    value {
      type: DT_FLOAT
    }
  }
  attr {
    key: "seed"
    value {
      i: 0
    }
  }
  attr {
    key: "seed2"
    value {
      i: 0
    }
  }
}
node {
  name: "conv2d_9/kernel/Initializer/truncated_normal/mul"
  op: "Mul"
  input: "conv2d_9/kernel/Initializer/truncated_normal/TruncatedNormal"
  input: "conv2d_9/kernel/Initializer/truncated_normal/stddev"
  attr {
    key: "T"
    value {
      type: DT_FLOAT
    }
  }
  attr {
    key: "_class"
    value {
      list {
        s: "loc:@conv2d_9/kernel"
      }
    }
  }
}
node {
  name: "conv2d_9/kernel/Initializer/truncated_normal"
  op: "Add"
  input: "conv2d_9/kernel/Initializer/truncated_normal/mul"
  input: "conv2d_9/kernel/Initializer/truncated_normal/mean"
  attr {
    key: "T"
    value {
      type: DT_FLOAT
    }
  }
  attr {
    key: "_class"
    value {
      list {
        s: "loc:@conv2d_9/kernel"
      }
    }
  }
}
node {
  name: "conv2d_9/kernel"
  op: "VariableV2"
  attr {
    key: "_class"
    value {
      list {
        s: "loc:@conv2d_9/kernel"
      }
    }
  }
  attr {
    key: "container"
    value {
      s: ""
    }
  }
  attr {
    key: "dtype"
    value {
      type: DT_FLOAT
    }
  }
  attr {
    key: "shape"
    value {
      shape {
        dim {
          size: 3
        }
        dim {
          size: 3
        }
        dim {
          size: 64
        }
        dim {
          size: 64
        }
      }
    }
  }
  attr {
    key: "shared_name"
    value {
      s: ""
    }
  }
}
node {
  name: "conv2d_9/kernel/Assign"
  op: "Assign"
  input: "conv2d_9/kernel"
  input: "conv2d_9/kernel/Initializer/truncated_normal"
  attr {
    key: "T"
    value {
      type: DT_FLOAT
    }
  }
  attr {
    key: "_class"
    value {
      list {
        s: "loc:@conv2d_9/kernel"
      }
    }
  }
  attr {
    key: "use_locking"
    value {
      b: true
    }
  }
  attr {
    key: "validate_shape"
    value {
      b: true
    }
  }
}
node {
  name: "conv2d_9/kernel/read"
  op: "Identity"
  input: "conv2d_9/kernel"
  attr {
    key: "T"
    value {
      type: DT_FLOAT
    }
  }
  attr {
    key: "_class"
    value {
      list {
        s: "loc:@conv2d_9/kernel"
      }
    }
  }
}
node {
  name: "conv2d_10/convolution/Shape"
  op: "Const"
  attr {
    key: "dtype"
    value {
      type: DT_INT32
    }
  }
  attr {
    key: "value"
    value {
      tensor {
        dtype: DT_INT32
        tensor_shape {
          dim {
            size: 4
          }
        }
        tensor_content: "\003\000\000\000\003\000\000\000@\000\000\000@\000\000\000"
      }
    }
  }
}
node {
  name: "conv2d_10/convolution/dilation_rate"
  op: "Const"
  attr {
    key: "dtype"
    value {
      type: DT_INT32
    }
  }
  attr {
    key: "value"
    value {
      tensor {
        dtype: DT_INT32
        tensor_shape {
          dim {
            size: 2
          }
        }
        tensor_content: "\001\000\000\000\001\000\000\000"
      }
    }
  }
}
node {
  name: "conv2d_10/convolution"
  op: "Conv2D"
  input: "Relu_5"
  input: "conv2d_9/kernel/read"
  attr {
    key: "T"
    value {
      type: DT_FLOAT
    }
  }
  attr {
    key: "data_format"
    value {
      s: "NCHW"
    }
  }
  attr {
    key: "padding"
    value {
      s: "SAME"
    }
  }
  attr {
    key: "strides"
    value {
      list {
        i: 1
        i: 1
        i: 1
        i: 1
      }
    }
  }
  attr {
    key: "use_cudnn_on_gpu"
    value {
      b: true
    }
  }
}
node {
  name: "add_2"
  op: "Add"
  input: "conv2d_10/convolution"
  input: "conv2d_8/convolution"
  attr {
    key: "T"
    value {
      type: DT_FLOAT
    }
  }
}
node {
  name: "block_layer3"
  op: "Identity"
  input: "add_2"
  attr {
    key: "T"
    value {
      type: DT_FLOAT
    }
  }
}
node {
  name: "batch_normalization_6/gamma/Initializer/ones"
  op: "Const"
  attr {
    key: "_class"
    value {
      list {
        s: "loc:@batch_normalization_6/gamma"
      }
    }
  }
  attr {
    key: "dtype"
    value {
      type: DT_FLOAT
    }
  }
  attr {
    key: "value"
    value {
      tensor {
        dtype: DT_FLOAT
        tensor_shape {
          dim {
            size: 64
          }
        }
        float_val: 1.0
      }
    }
  }
}
node {
  name: "batch_normalization_6/gamma"
  op: "VariableV2"
  attr {
    key: "_class"
    value {
      list {
        s: "loc:@batch_normalization_6/gamma"
      }
    }
  }
  attr {
    key: "container"
    value {
      s: ""
    }
  }
  attr {
    key: "dtype"
    value {
      type: DT_FLOAT
    }
  }
  attr {
    key: "shape"
    value {
      shape {
        dim {
          size: 64
        }
      }
    }
  }
  attr {
    key: "shared_name"
    value {
      s: ""
    }
  }
}
node {
  name: "batch_normalization_6/gamma/Assign"
  op: "Assign"
  input: "batch_normalization_6/gamma"
  input: "batch_normalization_6/gamma/Initializer/ones"
  attr {
    key: "T"
    value {
      type: DT_FLOAT
    }
  }
  attr {
    key: "_class"
    value {
      list {
        s: "loc:@batch_normalization_6/gamma"
      }
    }
  }
  attr {
    key: "use_locking"
    value {
      b: true
    }
  }
  attr {
    key: "validate_shape"
    value {
      b: true
    }
  }
}
node {
  name: "batch_normalization_6/gamma/read"
  op: "Identity"
  input: "batch_normalization_6/gamma"
  attr {
    key: "T"
    value {
      type: DT_FLOAT
    }
  }
  attr {
    key: "_class"
    value {
      list {
        s: "loc:@batch_normalization_6/gamma"
      }
    }
  }
}
node {
  name: "batch_normalization_6/beta/Initializer/zeros"
  op: "Const"
  attr {
    key: "_class"
    value {
      list {
        s: "loc:@batch_normalization_6/beta"
      }
    }
  }
  attr {
    key: "dtype"
    value {
      type: DT_FLOAT
    }
  }
  attr {
    key: "value"
    value {
      tensor {
        dtype: DT_FLOAT
        tensor_shape {
          dim {
            size: 64
          }
        }
        float_val: 0.0
      }
    }
  }
}
node {
  name: "batch_normalization_6/beta"
  op: "VariableV2"
  attr {
    key: "_class"
    value {
      list {
        s: "loc:@batch_normalization_6/beta"
      }
    }
  }
  attr {
    key: "container"
    value {
      s: ""
    }
  }
  attr {
    key: "dtype"
    value {
      type: DT_FLOAT
    }
  }
  attr {
    key: "shape"
    value {
      shape {
        dim {
          size: 64
        }
      }
    }
  }
  attr {
    key: "shared_name"
    value {
      s: ""
    }
  }
}
node {
  name: "batch_normalization_6/beta/Assign"
  op: "Assign"
  input: "batch_normalization_6/beta"
  input: "batch_normalization_6/beta/Initializer/zeros"
  attr {
    key: "T"
    value {
      type: DT_FLOAT
    }
  }
  attr {
    key: "_class"
    value {
      list {
        s: "loc:@batch_normalization_6/beta"
      }
    }
  }
  attr {
    key: "use_locking"
    value {
      b: true
    }
  }
  attr {
    key: "validate_shape"
    value {
      b: true
    }
  }
}
node {
  name: "batch_normalization_6/beta/read"
  op: "Identity"
  input: "batch_normalization_6/beta"
  attr {
    key: "T"
    value {
      type: DT_FLOAT
    }
  }
  attr {
    key: "_class"
    value {
      list {
        s: "loc:@batch_normalization_6/beta"
      }
    }
  }
}
node {
  name: "batch_normalization_6/moving_mean/Initializer/zeros"
  op: "Const"
  attr {
    key: "_class"
    value {
      list {
        s: "loc:@batch_normalization_6/moving_mean"
      }
    }
  }
  attr {
    key: "dtype"
    value {
      type: DT_FLOAT
    }
  }
  attr {
    key: "value"
    value {
      tensor {
        dtype: DT_FLOAT
        tensor_shape {
          dim {
            size: 64
          }
        }
        float_val: 0.0
      }
    }
  }
}
node {
  name: "batch_normalization_6/moving_mean"
  op: "VariableV2"
  attr {
    key: "_class"
    value {
      list {
        s: "loc:@batch_normalization_6/moving_mean"
      }
    }
  }
  attr {
    key: "container"
    value {
      s: ""
    }
  }
  attr {
    key: "dtype"
    value {
      type: DT_FLOAT
    }
  }
  attr {
    key: "shape"
    value {
      shape {
        dim {
          size: 64
        }
      }
    }
  }
  attr {
    key: "shared_name"
    value {
      s: ""
    }
  }
}
node {
  name: "batch_normalization_6/moving_mean/Assign"
  op: "Assign"
  input: "batch_normalization_6/moving_mean"
  input: "batch_normalization_6/moving_mean/Initializer/zeros"
  attr {
    key: "T"
    value {
      type: DT_FLOAT
    }
  }
  attr {
    key: "_class"
    value {
      list {
        s: "loc:@batch_normalization_6/moving_mean"
      }
    }
  }
  attr {
    key: "use_locking"
    value {
      b: true
    }
  }
  attr {
    key: "validate_shape"
    value {
      b: true
    }
  }
}
node {
  name: "batch_normalization_6/moving_mean/read"
  op: "Identity"
  input: "batch_normalization_6/moving_mean"
  attr {
    key: "T"
    value {
      type: DT_FLOAT
    }
  }
  attr {
    key: "_class"
    value {
      list {
        s: "loc:@batch_normalization_6/moving_mean"
      }
    }
  }
}
node {
  name: "batch_normalization_6/moving_variance/Initializer/ones"
  op: "Const"
  attr {
    key: "_class"
    value {
      list {
        s: "loc:@batch_normalization_6/moving_variance"
      }
    }
  }
  attr {
    key: "dtype"
    value {
      type: DT_FLOAT
    }
  }
  attr {
    key: "value"
    value {
      tensor {
        dtype: DT_FLOAT
        tensor_shape {
          dim {
            size: 64
          }
        }
        float_val: 1.0
      }
    }
  }
}
node {
  name: "batch_normalization_6/moving_variance"
  op: "VariableV2"
  attr {
    key: "_class"
    value {
      list {
        s: "loc:@batch_normalization_6/moving_variance"
      }
    }
  }
  attr {
    key: "container"
    value {
      s: ""
    }
  }
  attr {
    key: "dtype"
    value {
      type: DT_FLOAT
    }
  }
  attr {
    key: "shape"
    value {
      shape {
        dim {
          size: 64
        }
      }
    }
  }
  attr {
    key: "shared_name"
    value {
      s: ""
    }
  }
}
node {
  name: "batch_normalization_6/moving_variance/Assign"
  op: "Assign"
  input: "batch_normalization_6/moving_variance"
  input: "batch_normalization_6/moving_variance/Initializer/ones"
  attr {
    key: "T"
    value {
      type: DT_FLOAT
    }
  }
  attr {
    key: "_class"
    value {
      list {
        s: "loc:@batch_normalization_6/moving_variance"
      }
    }
  }
  attr {
    key: "use_locking"
    value {
      b: true
    }
  }
  attr {
    key: "validate_shape"
    value {
      b: true
    }
  }
}
node {
  name: "batch_normalization_6/moving_variance/read"
  op: "Identity"
  input: "batch_normalization_6/moving_variance"
  attr {
    key: "T"
    value {
      type: DT_FLOAT
    }
  }
  attr {
    key: "_class"
    value {
      list {
        s: "loc:@batch_normalization_6/moving_variance"
      }
    }
  }
}
node {
  name: "batch_normalization_7/Const"
  op: "Const"
  attr {
    key: "dtype"
    value {
      type: DT_FLOAT
    }
  }
  attr {
    key: "value"
    value {
      tensor {
        dtype: DT_FLOAT
        tensor_shape {
          dim {
          }
        }
      }
    }
  }
}
node {
  name: "batch_normalization_7/Const_1"
  op: "Const"
  attr {
    key: "dtype"
    value {
      type: DT_FLOAT
    }
  }
  attr {
    key: "value"
    value {
      tensor {
        dtype: DT_FLOAT
        tensor_shape {
          dim {
          }
        }
      }
    }
  }
}
node {
  name: "batch_normalization_7/FusedBatchNorm"
  op: "FusedBatchNorm"
  input: "block_layer3"
  input: "batch_normalization_6/gamma/read"
  input: "batch_normalization_6/beta/read"
  input: "batch_normalization_7/Const"
  input: "batch_normalization_7/Const_1"
  attr {
    key: "T"
    value {
      type: DT_FLOAT
    }
  }
  attr {
    key: "data_format"
    value {
      s: "NCHW"
    }
  }
  attr {
    key: "epsilon"
    value {
      f: 1.0009999641624745e-05
    }
  }
  attr {
    key: "is_training"
    value {
      b: true
    }
  }
}
node {
  name: "batch_normalization_7/AssignMovingAvg/read"
  op: "Identity"
  input: "batch_normalization_6/moving_mean"
  attr {
    key: "T"
    value {
      type: DT_FLOAT
    }
  }
  attr {
    key: "_class"
    value {
      list {
        s: "loc:@batch_normalization_6/moving_mean"
      }
    }
  }
}
node {
  name: "batch_normalization_7/AssignMovingAvg/sub"
  op: "Sub"
  input: "batch_normalization_7/AssignMovingAvg/read"
  input: "batch_normalization_7/FusedBatchNorm:1"
  attr {
    key: "T"
    value {
      type: DT_FLOAT
    }
  }
  attr {
    key: "_class"
    value {
      list {
        s: "loc:@batch_normalization_6/moving_mean"
      }
    }
  }
}
node {
  name: "batch_normalization_7/AssignMovingAvg/mul/y"
  op: "Const"
  attr {
    key: "_class"
    value {
      list {
        s: "loc:@batch_normalization_6/moving_mean"
      }
    }
  }
  attr {
    key: "dtype"
    value {
      type: DT_FLOAT
    }
  }
  attr {
    key: "value"
    value {
      tensor {
        dtype: DT_FLOAT
        tensor_shape {
        }
        float_val: 0.003000000026077032
      }
    }
  }
}
node {
  name: "batch_normalization_7/AssignMovingAvg/mul"
  op: "Mul"
  input: "batch_normalization_7/AssignMovingAvg/sub"
  input: "batch_normalization_7/AssignMovingAvg/mul/y"
  attr {
    key: "T"
    value {
      type: DT_FLOAT
    }
  }
  attr {
    key: "_class"
    value {
      list {
        s: "loc:@batch_normalization_6/moving_mean"
      }
    }
  }
}
node {
  name: "batch_normalization_7/AssignMovingAvg"
  op: "AssignSub"
  input: "batch_normalization_6/moving_mean"
  input: "batch_normalization_7/AssignMovingAvg/mul"
  attr {
    key: "T"
    value {
      type: DT_FLOAT
    }
  }
  attr {
    key: "_class"
    value {
      list {
        s: "loc:@batch_normalization_6/moving_mean"
      }
    }
  }
  attr {
    key: "use_locking"
    value {
      b: false
    }
  }
}
node {
  name: "batch_normalization_7/AssignMovingAvg_1/read"
  op: "Identity"
  input: "batch_normalization_6/moving_variance"
  attr {
    key: "T"
    value {
      type: DT_FLOAT
    }
  }
  attr {
    key: "_class"
    value {
      list {
        s: "loc:@batch_normalization_6/moving_variance"
      }
    }
  }
}
node {
  name: "batch_normalization_7/AssignMovingAvg_1/sub"
  op: "Sub"
  input: "batch_normalization_7/AssignMovingAvg_1/read"
  input: "batch_normalization_7/FusedBatchNorm:2"
  attr {
    key: "T"
    value {
      type: DT_FLOAT
    }
  }
  attr {
    key: "_class"
    value {
      list {
        s: "loc:@batch_normalization_6/moving_variance"
      }
    }
  }
}
node {
  name: "batch_normalization_7/AssignMovingAvg_1/mul/y"
  op: "Const"
  attr {
    key: "_class"
    value {
      list {
        s: "loc:@batch_normalization_6/moving_variance"
      }
    }
  }
  attr {
    key: "dtype"
    value {
      type: DT_FLOAT
    }
  }
  attr {
    key: "value"
    value {
      tensor {
        dtype: DT_FLOAT
        tensor_shape {
        }
        float_val: 0.003000000026077032
      }
    }
  }
}
node {
  name: "batch_normalization_7/AssignMovingAvg_1/mul"
  op: "Mul"
  input: "batch_normalization_7/AssignMovingAvg_1/sub"
  input: "batch_normalization_7/AssignMovingAvg_1/mul/y"
  attr {
    key: "T"
    value {
      type: DT_FLOAT
    }
  }
  attr {
    key: "_class"
    value {
      list {
        s: "loc:@batch_normalization_6/moving_variance"
      }
    }
  }
}
node {
  name: "batch_normalization_7/AssignMovingAvg_1"
  op: "AssignSub"
  input: "batch_normalization_6/moving_variance"
  input: "batch_normalization_7/AssignMovingAvg_1/mul"
  attr {
    key: "T"
    value {
      type: DT_FLOAT
    }
  }
  attr {
    key: "_class"
    value {
      list {
        s: "loc:@batch_normalization_6/moving_variance"
      }
    }
  }
  attr {
    key: "use_locking"
    value {
      b: false
    }
  }
}
node {
  name: "Relu_6"
  op: "Relu"
  input: "batch_normalization_7/FusedBatchNorm"
  attr {
    key: "T"
    value {
      type: DT_FLOAT
    }
  }
}
node {
  name: "average_pooling2d/AvgPool"
  op: "AvgPool"
  input: "Relu_6"
  attr {
    key: "T"
    value {
      type: DT_FLOAT
    }
  }
  attr {
    key: "data_format"
    value {
      s: "NCHW"
    }
  }
  attr {
    key: "ksize"
    value {
      list {
        i: 1
        i: 1
        i: 8
        i: 8
      }
    }
  }
  attr {
    key: "padding"
    value {
      s: "VALID"
    }
  }
  attr {
    key: "strides"
    value {
      list {
        i: 1
        i: 1
        i: 1
        i: 1
      }
    }
  }
}
node {
  name: "final_avg_pool"
  op: "Identity"
  input: "average_pooling2d/AvgPool"
  attr {
    key: "T"
    value {
      type: DT_FLOAT
    }
  }
}
node {
  name: "Reshape_1/shape"
  op: "Const"
  attr {
    key: "dtype"
    value {
      type: DT_INT32
    }
  }
  attr {
    key: "value"
    value {
      tensor {
        dtype: DT_INT32
        tensor_shape {
          dim {
            size: 2
          }
        }
        tensor_content: "\377\377\377\377@\000\000\000"
      }
    }
  }
}
node {
  name: "Reshape_1"
  op: "Reshape"
  input: "final_avg_pool"
  input: "Reshape_1/shape"
  attr {
    key: "T"
    value {
      type: DT_FLOAT
    }
  }
  attr {
    key: "Tshape"
    value {
      type: DT_INT32
    }
  }
}
node {
  name: "dense/kernel/Initializer/random_uniform/shape"
  op: "Const"
  attr {
    key: "_class"
    value {
      list {
        s: "loc:@dense/kernel"
      }
    }
  }
  attr {
    key: "dtype"
    value {
      type: DT_INT32
    }
  }
  attr {
    key: "value"
    value {
      tensor {
        dtype: DT_INT32
        tensor_shape {
          dim {
            size: 2
          }
        }
        tensor_content: "@\000\000\000\n\000\000\000"
      }
    }
  }
}
node {
  name: "dense/kernel/Initializer/random_uniform/min"
  op: "Const"
  attr {
    key: "_class"
    value {
      list {
        s: "loc:@dense/kernel"
      }
    }
  }
  attr {
    key: "dtype"
    value {
      type: DT_FLOAT
    }
  }
  attr {
    key: "value"
    value {
      tensor {
        dtype: DT_FLOAT
        tensor_shape {
        }
        float_val: -0.2847473919391632
      }
    }
  }
}
node {
  name: "dense/kernel/Initializer/random_uniform/max"
  op: "Const"
  attr {
…
  name: "softmax_cross_entropy_loss/Equal"
  op: "Equal"
  input: "softmax_cross_entropy_loss/num_present"
  input: "softmax_cross_entropy_loss/Equal/y"
  attr {
    key: "T"
    value {
      type: DT_FLOAT
    }
  }
}
node {
  name: "softmax_cross_entropy_loss/ones_like/Shape"
  op: "Const"
  input: "^softmax_cross_entropy_loss/assert_broadcastable/static_scalar_check_success"
  attr {
    key: "dtype"
    value {
      type: DT_INT32
    }
  }
  attr {
    key: "value"
    value {
      tensor {
        dtype: DT_INT32
        tensor_shape {
          dim {
          }
        }
      }
    }
  }
}
node {
  name: "softmax_cross_entropy_loss/ones_like/Const"
  op: "Const"
  input: "^softmax_cross_entropy_loss/assert_broadcastable/static_scalar_check_success"
  attr {
    key: "dtype"
    value {
      type: DT_FLOAT
    }
  }
  attr {
    key: "value"
    value {
      tensor {
        dtype: DT_FLOAT
        tensor_shape {
        }
        float_val: 1.0
      }
    }
  }
}
node {
  name: "softmax_cross_entropy_loss/ones_like"
  op: "Fill"
  input: "softmax_cross_entropy_loss/ones_like/Shape"
  input: "softmax_cross_entropy_loss/ones_like/Const"
  attr {
    key: "T"
    value {
      type: DT_FLOAT
    }
  }
}
node {
  name: "softmax_cross_entropy_loss/Select"
  op: "Select"
  input: "softmax_cross_entropy_loss/Equal"
  input: "softmax_cross_entropy_loss/ones_like"
  input: "softmax_cross_entropy_loss/num_present"
  attr {
    key: "T"
    value {
      type: DT_FLOAT
    }
  }
}
node {
  name: "softmax_cross_entropy_loss/div"
  op: "RealDiv"
  input: "softmax_cross_entropy_loss/Sum_1"
  input: "softmax_cross_entropy_loss/Select"
  attr {
    key: "T"
    value {
      type: DT_FLOAT
    }
  }
}
node {
  name: "softmax_cross_entropy_loss/zeros_like"
  op: "Const"
  input: "^softmax_cross_entropy_loss/assert_broadcastable/static_scalar_check_success"
  attr {
    key: "dtype"
    value {
      type: DT_FLOAT
    }
  }
  attr {
    key: "value"
    value {
      tensor {
        dtype: DT_FLOAT
        tensor_shape {
        }
        float_val: 0.0
      }
    }
  }
}
node {
  name: "softmax_cross_entropy_loss/value"
  op: "Select"
  input: "softmax_cross_entropy_loss/Greater"
  input: "softmax_cross_entropy_loss/div"
  input: "softmax_cross_entropy_loss/zeros_like"
  attr {
    key: "T"
    value {
      type: DT_FLOAT
    }
  }
}
node {
  name: "Const_3"
  op: "Const"
  attr {
    key: "dtype"
    value {
      type: DT_FLOAT
    }
  }
  attr {
    key: "value"
    value {
      tensor {
        dtype: DT_FLOAT
        tensor_shape {
        }
        float_val: 0.10000000149011612
      }
    }
  }
}
library {
  function {
    signature {
      name: "tf_map_func_dd7e9ec6"
      input_arg {
        name: "arg0"
        type: DT_STRING
      }
      output_arg {
        name: "Cast_1"
        type: DT_FLOAT
      }
      output_arg {
        name: "one_hot"
        type: DT_FLOAT
      }
      description: "A wrapper for Defun that facilitates shape inference."
    }
    node_def {
      name: "DecodeRaw"
      op: "DecodeRaw"
      input: "arg0"
      attr {
        key: "little_endian"
        value {
          b: true
        }
      }
      attr {
        key: "out_type"
        value {
          type: DT_UINT8
        }
      }
    }
    node_def {
      name: "strided_slice/stack"
      op: "Const"
      attr {
        key: "dtype"
        value {
          type: DT_INT32
        }
      }
      attr {
        key: "value"
        value {
          tensor {
            dtype: DT_INT32
            tensor_shape {
              dim {
                size: 1
              }
            }
            int_val: 0
          }
        }
      }
    }
    node_def {
      name: "strided_slice/stack_1"
      op: "Const"
      attr {
        key: "dtype"
        value {
          type: DT_INT32
        }
      }
      attr {
        key: "value"
        value {
          tensor {
            dtype: DT_INT32
            tensor_shape {
              dim {
                size: 1
              }
            }
            int_val: 1
          }
        }
      }
    }
    node_def {
      name: "strided_slice/stack_2"
      op: "Const"
      attr {
        key: "dtype"
        value {
          type: DT_INT32
        }
      }
      attr {
        key: "value"
        value {
          tensor {
            dtype: DT_INT32
            tensor_shape {
              dim {
                size: 1
              }
            }
            int_val: 1
          }
        }
      }
    }
    node_def {
      name: "strided_slice"
      op: "StridedSlice"
      input: "DecodeRaw:output:0"
      input: "strided_slice/stack:output:0"
      input: "strided_slice/stack_1:output:0"
      input: "strided_slice/stack_2:output:0"
      attr {
        key: "Index"
        value {
          type: DT_INT32
        }
      }
      attr {
        key: "T"
        value {
          type: DT_UINT8
        }
      }
      attr {
        key: "begin_mask"
        value {
          i: 0
        }
      }
      attr {
        key: "ellipsis_mask"
        value {
          i: 0
        }
      }
      attr {
        key: "end_mask"
        value {
          i: 0
        }
      }
      attr {
        key: "new_axis_mask"
        value {
          i: 0
        }
      }
      attr {
        key: "shrink_axis_mask"
        value {
          i: 1
        }
      }
    }
    node_def {
      name: "Cast"
      op: "Cast"
      input: "strided_slice:output:0"
      attr {
        key: "DstT"
        value {
          type: DT_INT32
        }
      }
      attr {
        key: "SrcT"
        value {
          type: DT_UINT8
        }
      }
    }
    node_def {
      name: "strided_slice_1/stack"
      op: "Const"
      attr {
        key: "dtype"
        value {
          type: DT_INT32
        }
      }
      attr {
        key: "value"
        value {
          tensor {
            dtype: DT_INT32
            tensor_shape {
              dim {
                size: 1
              }
            }
            int_val: 1
          }
        }
      }
    }
    node_def {
      name: "strided_slice_1/stack_1"
      op: "Const"
      attr {
        key: "dtype"
        value {
          type: DT_INT32
        }
      }
      attr {
        key: "value"
        value {
          tensor {
            dtype: DT_INT32
            tensor_shape {
              dim {
                size: 1
              }
            }
            int_val: 3073
          }
        }
      }
    }
    node_def {
      name: "strided_slice_1/stack_2"
      op: "Const"
      attr {
        key: "dtype"
        value {
          type: DT_INT32
        }
      }
      attr {
        key: "value"
        value {
          tensor {
            dtype: DT_INT32
            tensor_shape {
              dim {
                size: 1
              }
            }
            int_val: 1
          }
        }
      }
    }
    node_def {
      name: "strided_slice_1"
      op: "StridedSlice"
      input: "DecodeRaw:output:0"
      input: "strided_slice_1/stack:output:0"
      input: "strided_slice_1/stack_1:output:0"
      input: "strided_slice_1/stack_2:output:0"
      attr {
        key: "Index"
        value {
          type: DT_INT32
        }
      }
      attr {
        key: "T"
        value {
          type: DT_UINT8
        }
      }
      attr {
        key: "begin_mask"
        value {
          i: 0
        }
      }
      attr {
        key: "ellipsis_mask"
        value {
          i: 0
        }
      }
      attr {
        key: "end_mask"
        value {
          i: 0
        }
      }
      attr {
        key: "new_axis_mask"
        value {
          i: 0
        }
      }
      attr {
        key: "shrink_axis_mask"
        value {
          i: 0
        }
      }
    }
    node_def {
      name: "Reshape/shape"
      op: "Const"
      attr {
        key: "dtype"
        value {
          type: DT_INT32
        }
      }
      attr {
        key: "value"
        value {
          tensor {
            dtype: DT_INT32
            tensor_shape {
              dim {
                size: 3
              }
            }
            tensor_content: "\003\000\000\000 \000\000\000 \000\000\000"
          }
        }
      }
    }
    node_def {
      name: "Reshape"
      op: "Reshape"
      input: "strided_slice_1:output:0"
      input: "Reshape/shape:output:0"
      attr {
        key: "T"
        value {
          type: DT_UINT8
        }
      }
      attr {
        key: "Tshape"
        value {
          type: DT_INT32
        }
      }
    }
    node_def {
      name: "transpose/perm"
      op: "Const"
      attr {
        key: "dtype"
        value {
          type: DT_INT32
        }
      }
      attr {
        key: "value"
        value {
          tensor {
            dtype: DT_INT32
            tensor_shape {
              dim {
                size: 3
              }
            }
            tensor_content: "\001\000\000\000\002\000\000\000\000\000\000\000"
          }
        }
      }
    }
    node_def {
      name: "transpose"
      op: "Transpose"
      input: "Reshape:output:0"
      input: "transpose/perm:output:0"
      attr {
        key: "T"
        value {
          type: DT_UINT8
        }
      }
      attr {
        key: "Tperm"
        value {
          type: DT_INT32
        }
      }
    }
    node_def {
      name: "Cast_1"
      op: "Cast"
      input: "transpose:y:0"
      attr {
        key: "DstT"
        value {
          type: DT_FLOAT
        }
      }
      attr {
        key: "SrcT"
        value {
          type: DT_UINT8
        }
      }
    }
    node_def {
      name: "one_hot/on_value"
      op: "Const"
      attr {
        key: "dtype"
        value {
          type: DT_FLOAT
        }
      }
      attr {
        key: "value"
        value {
          tensor {
            dtype: DT_FLOAT
            tensor_shape {
            }
            float_val: 1.0
          }
        }
      }
    }
    node_def {
      name: "one_hot/off_value"
      op: "Const"
      attr {
        key: "dtype"
        value {
          type: DT_FLOAT
        }
      }
      attr {
        key: "value"
        value {
          tensor {
            dtype: DT_FLOAT
            tensor_shape {
            }
            float_val: 0.0
          }
        }
      }
    }
    node_def {
      name: "one_hot/depth"
      op: "Const"
      attr {
        key: "dtype"
        value {
          type: DT_INT32
        }
      }
      attr {
        key: "value"
        value {
          tensor {
            dtype: DT_INT32
            tensor_shape {
            }
            int_val: 10
          }
        }
      }
    }
    node_def {
      name: "one_hot"
      op: "OneHot"
      input: "Cast:y:0"
      input: "one_hot/depth:output:0"
      input: "one_hot/on_value:output:0"
      input: "one_hot/off_value:output:0"
      attr {
        key: "T"
        value {
          type: DT_FLOAT
        }
      }
      attr {
        key: "TI"
        value {
          type: DT_INT32
        }
      }
      attr {
        key: "axis"
        value {
          i: -1
        }
      }
    }
    ret {
      key: "Cast_1"
      value: "Cast_1:y:0"
    }
    ret {
      key: "one_hot"
      value: "one_hot:output:0"
    }
  }
  function {
    signature {
      name: "tf_map_func_671053fa"
      input_arg {
        name: "arg0"
        type: DT_FLOAT
      }
      input_arg {
        name: "arg1"
        type: DT_FLOAT
      }
      output_arg {
        name: "cond/Merge"
        type: DT_FLOAT
      }
      output_arg {
        name: "arg1"
        type: DT_FLOAT
      }
      description: "A wrapper for Defun that facilitates shape inference."
    }
    node_def {
      name: "ExpandDims/dim"
      op: "Const"
      attr {
        key: "dtype"
        value {
          type: DT_INT32
        }
      }
      attr {
        key: "value"
        value {
          tensor {
            dtype: DT_INT32
            tensor_shape {
            }
            int_val: 0
          }
        }
      }
    }
    node_def {
      name: "ExpandDims"
      op: "ExpandDims"
      input: "arg0"
      input: "ExpandDims/dim:output:0"
      attr {
        key: "T"
        value {
          type: DT_FLOAT
        }
      }
      attr {
        key: "Tdim"
        value {
          type: DT_INT32
        }
      }
    }
    node_def {
      name: "control_dependency"
      op: "Identity"
      input: "ExpandDims:output:0"
      attr {
        key: "T"
        value {
          type: DT_FLOAT
        }
      }
      attr {
        key: "_class"
        value {
          list {
            s: "loc:@ExpandDims"
          }
        }
      }
    }
    node_def {
      name: "control_dependency_1"
      op: "Identity"
      input: "control_dependency:output:0"
      attr {
        key: "T"
        value {
          type: DT_FLOAT
        }
      }
      attr {
        key: "_class"
        value {
          list {
            s: "loc:@ExpandDims"
          }
        }
      }
    }
    node_def {
      name: "stack"
      op: "Const"
      attr {
        key: "dtype"
        value {
          type: DT_INT32
        }
      }
      attr {
        key: "value"
        value {
          tensor {
            dtype: DT_INT32
            tensor_shape {
              dim {
                size: 4
              }
            }
            tensor_content: "\000\000\000\000\000\000\000\000\000\000\000\000\000\000\000\000"
          }
        }
      }
    }
    node_def {
      name: "stack_1"
      op: "Const"
      attr {
        key: "dtype"
        value {
          type: DT_INT32
        }
      }
      attr {
        key: "value"
        value {
          tensor {
            dtype: DT_INT32
            tensor_shape {
              dim {
                size: 4
              }
            }
            tensor_content: "\377\377\377\377 \000\000\000 \000\000\000\377\377\377\377"
          }
        }
      }
    }
    node_def {
      name: "Slice"
      op: "Slice"
      input: "control_dependency_1:output:0"
      input: "stack:output:0"
      input: "stack_1:output:0"
      attr {
        key: "Index"
        value {
          type: DT_INT32
        }
      }
      attr {
        key: "T"
        value {
          type: DT_FLOAT
        }
      }
    }
    node_def {
      name: "control_dependency_2"
      op: "Identity"
      input: "Slice:output:0"
      attr {
        key: "T"
        value {
          type: DT_FLOAT
        }
      }
      attr {
        key: "_class"
        value {
          list {
            s: "loc:@Slice"
          }
        }
      }
    }
    node_def {
      name: "stack_2"
      op: "Const"
      attr {
        key: "dtype"
        value {
          type: DT_INT32
        }
      }
      attr {
        key: "value"
        value {
          tensor {
            dtype: DT_INT32
            tensor_shape {
              dim {
                size: 8
              }
            }
            tensor_content: "…"
          }
        }
      }
    }
    node_def {
      name: "Reshape/shape"
      op: "Const"
      attr {
        key: "dtype"
        value {
          type: DT_INT32
        }
      }
      attr {
        key: "value"
        value {
          tensor {
            dtype: DT_INT32
            tensor_shape {
              dim {
                size: 2
              }
            }
            tensor_content: "\004\000\000\000\002\000\000\000"
          }
        }
      }
    }
    node_def {
      name: "Reshape"
      op: "Reshape"
      input: "stack_2:output:0"
      input: "Reshape/shape:output:0"
      attr {
        key: "T"
        value {
          type: DT_INT32
        }
      }
      attr {
        key: "Tshape"
        value {
          type: DT_INT32
        }
      }
    }
    node_def {
      name: "Pad"
      op: "Pad"
      input: "control_dependency_2:output:0"
      input: "Reshape:output:0"
      attr {
        key: "T"
        value {
          type: DT_FLOAT
        }
      }
      attr {
        key: "Tpaddings"
        value {
          type: DT_INT32
        }
      }
    }
    node_def {
      name: "control_dependency_3"
      op: "Identity"
      input: "Pad:output:0"
      attr {
        key: "T"
        value {
          type: DT_FLOAT
        }
      }
      attr {
        key: "_class"
        value {
          list {
            s: "loc:@Pad"
          }
        }
      }
    }
    node_def {
      name: "Squeeze"
      op: "Squeeze"
      input: "control_dependency_3:output:0"
      attr {
        key: "T"
        value {
          type: DT_FLOAT
        }
      }
      attr {
        key: "squeeze_dims"
        value {
          list {
            i: 0
          }
        }
      }
    }
    node_def {
      name: "random_crop/size"
      op: "Const"
      attr {
        key: "dtype"
        value {
          type: DT_INT32
        }
      }
      attr {
        key: "value"
        value {
          tensor {
            dtype: DT_INT32
            tensor_shape {
              dim {
                size: 3
              }
            }
            tensor_content: " \000\000\000 \000\000\000\003\000\000\000"
          }
        }
      }
    }
    node_def {
      name: "random_crop/Shape"
      op: "Const"
      attr {
        key: "dtype"
        value {
          type: DT_INT32
        }
      }
      attr {
        key: "value"
        value {
          tensor {
            dtype: DT_INT32
            tensor_shape {
              dim {
                size: 3
              }
            }
            tensor_content: "(\000\000\000(\000\000\000\003\000\000\000"
          }
        }
      }
    }
    node_def {
      name: "random_crop/GreaterEqual"
      op: "GreaterEqual"
      input: "random_crop/Shape:output:0"
      input: "random_crop/size:output:0"
      attr {
        key: "T"
        value {
          type: DT_INT32
        }
      }
    }
    node_def {
      name: "random_crop/Const"
      op: "Const"
      attr {
        key: "dtype"
        value {
          type: DT_INT32
        }
      }
      attr {
        key: "value"
        value {
          tensor {
            dtype: DT_INT32
            tensor_shape {
              dim {
                size: 1
              }
            }
            int_val: 0
          }
        }
      }
    }
    node_def {
      name: "random_crop/All"
      op: "All"
      input: "random_crop/GreaterEqual:z:0"
      input: "random_crop/Const:output:0"
      attr {
        key: "Tidx"
        value {
          type: DT_INT32
        }
      }
      attr {
        key: "keep_dims"
        value {
          b: false
        }
      }
    }
    node_def {
      name: "random_crop/Assert/Const"
      op: "Const"
      attr {
        key: "dtype"
        value {
          type: DT_STRING
        }
      }
      attr {
        key: "value"
        value {
          tensor {
            dtype: DT_STRING
            tensor_shape {
            }
            string_val: "Need value.shape >= size, got "
          }
        }
      }
    }
    node_def {
      name: "random_crop/Assert/Assert/data_0"
      op: "Const"
      attr {
        key: "dtype"
        value {
          type: DT_STRING
        }
      }
      attr {
        key: "value"
        value {
          tensor {
            dtype: DT_STRING
            tensor_shape {
            }
            string_val: "Need value.shape >= size, got "
          }
        }
      }
    }
    node_def {
      name: "random_crop/Assert/Assert"
      op: "Assert"
      input: "random_crop/All:output:0"
      input: "random_crop/Assert/Assert/data_0:output:0"
      input: "random_crop/Shape:output:0"
      input: "random_crop/size:output:0"
      attr {
        key: "T"
        value {
          list {
            type: DT_STRING
            type: DT_INT32
            type: DT_INT32
          }
        }
      }
      attr {
        key: "summarize"
        value {
          i: 1000
        }
      }
    }
    node_def {
      name: "random_crop/control_dependency"
      op: "Identity"
      input: "random_crop/Shape:output:0"
      input: "^random_crop/Assert/Assert"
      attr {
        key: "T"
        value {
          type: DT_INT32
        }
      }
      attr {
        key: "_class"
        value {
          list {
            s: "loc:@random_crop/Shape"
          }
        }
      }
    }
    node_def {
      name: "random_crop/sub"
      op: "Sub"
      input: "random_crop/control_dependency:output:0"
      input: "random_crop/size:output:0"
      attr {
        key: "T"
        value {
          type: DT_INT32
        }
      }
    }
    node_def {
      name: "random_crop/add/y"
      op: "Const"
      attr {
        key: "dtype"
        value {
          type: DT_INT32
        }
      }
      attr {
        key: "value"
        value {
          tensor {
            dtype: DT_INT32
            tensor_shape {
            }
            int_val: 1
          }
        }
      }
    }
    node_def {
      name: "random_crop/add"
      op: "Add"
      input: "random_crop/sub:z:0"
      input: "random_crop/add/y:output:0"
      attr {
        key: "T"
        value {
          type: DT_INT32
        }
      }
    }
    node_def {
      name: "random_crop/Shape_1"
      op: "Const"
      attr {
        key: "dtype"
        value {
          type: DT_INT32
        }
      }
      attr {
        key: "value"
        value {
          tensor {
            dtype: DT_INT32
            tensor_shape {
              dim {
                size: 1
              }
            }
            int_val: 3
          }
        }
      }
    }
    node_def {
      name: "random_crop/random_uniform/min"
      op: "Const"
      attr {
        key: "dtype"
        value {
          type: DT_INT32
        }
      }
      attr {
        key: "value"
        value {
          tensor {
            dtype: DT_INT32
            tensor_shape {
            }
            int_val: 0
          }
        }
      }
    }
    node_def {
      name: "random_crop/random_uniform/max"
      op: "Const"
      attr {
        key: "dtype"
        value {
          type: DT_INT32
        }
      }
      attr {
        key: "value"
        value {
          tensor {
            dtype: DT_INT32
            tensor_shape {
            }
            int_val: 2147483647
          }
        }
      }
    }
    node_def {
      name: "random_crop/random_uniform"
      op: "RandomUniformInt"
      input: "random_crop/Shape_1:output:0"
      input: "random_crop/random_uniform/min:output:0"
      input: "random_crop/random_uniform/max:output:0"
      attr {
        key: "T"
        value {
          type: DT_INT32
        }
      }
      attr {
        key: "Tout"
        value {
          type: DT_INT32
        }
      }
      attr {
        key: "seed"
        value {
          i: 0
        }
      }
      attr {
        key: "seed2"
        value {
          i: 0
        }
      }
    }
    node_def {
      name: "random_crop/mod"
      op: "FloorMod"
      input: "random_crop/random_uniform:output:0"
      input: "random_crop/add:z:0"
      attr {
        key: "T"
        value {
          type: DT_INT32
        }
      }
    }
    node_def {
      name: "random_crop"
      op: "Slice"
      input: "Squeeze:output:0"
      input: "random_crop/mod:z:0"
      input: "random_crop/size:output:0"
      attr {
        key: "Index"
        value {
          type: DT_INT32
        }
      }
      attr {
        key: "T"
        value {
          type: DT_FLOAT
        }
      }
    }
    node_def {
      name: "control_dependency_4"
      op: "Identity"
      input: "random_crop:output:0"
      attr {
        key: "T"
        value {
          type: DT_FLOAT
        }
      }
      attr {
        key: "_class"
        value {
          list {
            s: "loc:@random_crop"
          }
        }
      }
    }
    node_def {
      name: "random_uniform/shape"
      op: "Const"
      attr {
        key: "dtype"
        value {
          type: DT_INT32
        }
      }
      attr {
        key: "value"
        value {
          tensor {
            dtype: DT_INT32
            tensor_shape {
              dim {
              }
            }
          }
        }
      }
    }
    node_def {
      name: "random_uniform/min"
      op: "Const"
      attr {
        key: "dtype"
        value {
          type: DT_FLOAT
        }
      }
      attr {
        key: "value"
        value {
          tensor {
            dtype: DT_FLOAT
            tensor_shape {
            }
            float_val: 0.0
          }
        }
      }
    }
    node_def {
      name: "random_uniform/max"
      op: "Const"
      attr {
        key: "dtype"
        value {
          type: DT_FLOAT
        }
      }
      attr {
        key: "value"
        value {
          tensor {
            dtype: DT_FLOAT
            tensor_shape {
            }
            float_val: 1.0
          }
        }
      }
    }
    node_def {
      name: "random_uniform/RandomUniform"
      op: "RandomUniform"
      input: "random_uniform/shape:output:0"
      attr {
        key: "T"
        value {
          type: DT_INT32
        }
      }
      attr {
        key: "dtype"
        value {
          type: DT_FLOAT
        }
      }
      attr {
        key: "seed"
        value {
          i: 0
        }
      }
      attr {
        key: "seed2"
        value {
          i: 0
        }
      }
    }
    node_def {
      name: "random_uniform/sub"
      op: "Sub"
      input: "random_uniform/max:output:0"
      input: "random_uniform/min:output:0"
      attr {
        key: "T"
        value {
          type: DT_FLOAT
        }
      }
    }
    node_def {
      name: "random_uniform/mul"
      op: "Mul"
      input: "random_uniform/RandomUniform:output:0"
      input: "random_uniform/sub:z:0"
      attr {
        key: "T"
        value {
          type: DT_FLOAT
        }
      }
    }
    node_def {
      name: "random_uniform"
      op: "Add"
      input: "random_uniform/mul:z:0"
      input: "random_uniform/min:output:0"
      attr {
        key: "T"
        value {
          type: DT_FLOAT
        }
      }
    }
    node_def {
      name: "Less/y"
      op: "Const"
      attr {
        key: "dtype"
        value {
          type: DT_FLOAT
        }
      }
      attr {
        key: "value"
        value {
          tensor {
            dtype: DT_FLOAT
            tensor_shape {
            }
            float_val: 0.5
          }
        }
      }
    }
    node_def {
      name: "Less"
      op: "Less"
      input: "random_uniform:z:0"
      input: "Less/y:output:0"
      attr {
        key: "T"
        value {
          type: DT_FLOAT
        }
      }
    }
    node_def {
      name: "cond/Switch"
      op: "Switch"
      input: "Less:z:0"
      input: "Less:z:0"
      attr {
        key: "T"
        value {
          type: DT_BOOL
        }
      }
    }
    node_def {
      name: "cond/switch_t"
      op: "Identity"
      input: "cond/Switch:output_true:0"
      attr {
        key: "T"
        value {
          type: DT_BOOL
        }
      }
    }
    node_def {
      name: "cond/switch_f"
      op: "Identity"
      input: "cond/Switch:output_false:0"
      attr {
        key: "T"
        value {
          type: DT_BOOL
        }
      }
    }
    node_def {
      name: "cond/pred_id"
      op: "Identity"
      input: "Less:z:0"
      attr {
        key: "T"
        value {
          type: DT_BOOL
        }
      }
    }
    node_def {
      name: "cond/ReverseV2/axis"
      op: "Const"
      input: "^cond/switch_t"
      attr {
        key: "dtype"
        value {
          type: DT_INT32
        }
      }
      attr {
        key: "value"
        value {
          tensor {
            dtype: DT_INT32
            tensor_shape {
              dim {
                size: 1
              }
            }
            int_val: 1
          }
        }
      }
    }
    node_def {
      name: "cond/ReverseV2/Switch"
      op: "Switch"
      input: "control_dependency_4:output:0"
      input: "cond/pred_id:output:0"
      attr {
        key: "T"
        value {
          type: DT_FLOAT
        }
      }
      attr {
        key: "_class"
        value {
          list {
            s: "loc:@random_crop"
          }
        }
      }
    }
    node_def {
      name: "cond/ReverseV2"
      op: "ReverseV2"
      input: "cond/ReverseV2/Switch:output_true:0"
      input: "cond/ReverseV2/axis:output:0"
      attr {
        key: "T"
        value {
          type: DT_FLOAT
        }
      }
      attr {
        key: "Tidx"
        value {
          type: DT_INT32
        }
      }
    }
    node_def {
      name: "cond/Switch_1"
      op: "Switch"
      input: "control_dependency_4:output:0"
      input: "cond/pred_id:output:0"
      attr {
        key: "T"
        value {
          type: DT_FLOAT
        }
      }
      attr {
        key: "_class"
        value {
          list {
            s: "loc:@random_crop"
          }
        }
      }
    }
    node_def {
      name: "cond/Merge"
      op: "Merge"
      input: "cond/Switch_1:output_false:0"
      input: "cond/ReverseV2:output:0"
      attr {
        key: "N"
        value {
          i: 2
        }
      }
      attr {
        key: "T"
        value {
          type: DT_FLOAT
        }
      }
    }
    ret {
      key: "arg1"
      value: "arg1"
    }
    ret {
      key: "cond/Merge"
      value: "cond/Merge:output:0"
    }
  }
  function {
    signature {
      name: "tf_map_func_c5fa6fa0"
      input_arg {
        name: "arg0"
        type: DT_FLOAT
      }
      input_arg {
        name: "arg1"
        type: DT_FLOAT
      }
      output_arg {
        name: "div"
        type: DT_FLOAT
      }
      output_arg {
        name: "arg1"
        type: DT_FLOAT
      }
      description: "A wrapper for Defun that facilitates shape inference."
    }
    node_def {
      name: "control_dependency"
      op: "Identity"
      input: "arg0"
      attr {
        key: "T"
        value {
          type: DT_FLOAT
        }
      }
      attr {
        key: "_class"
        value {
          list {
            s: "loc:@arg0"
          }
        }
      }
    }
    node_def {
      name: "Shape"
      op: "Const"
      attr {
        key: "dtype"
        value {
          type: DT_INT32
        }
      }
      attr {
        key: "value"
        value {
          tensor {
            dtype: DT_INT32
            tensor_shape {
              dim {
                size: 3
              }
            }
            tensor_content: " \000\000\000 \000\000\000\003\000\000\000"
          }
        }
      }
    }
    node_def {
      name: "Const"
      op: "Const"
      attr {
        key: "dtype"
        value {
          type: DT_INT32
        }
      }
      attr {
        key: "value"
        value {
          tensor {
            dtype: DT_INT32
            tensor_shape {
              dim {
                size: 1
              }
            }
            int_val: 0
          }
        }
      }
    }
    node_def {
      name: "Prod"
      op: "Prod"
      input: "Shape:output:0"
      input: "Const:output:0"
      attr {
        key: "T"
        value {
          type: DT_INT32
        }
      }
      attr {
        key: "Tidx"
        value {
          type: DT_INT32
        }
      }
      attr {
        key: "keep_dims"
        value {
          b: false
        }
      }
    }
    node_def {
      name: "Const_1"
      op: "Const"
      attr {
        key: "dtype"
        value {
          type: DT_INT32
        }
      }
      attr {
        key: "value"
        value {
          tensor {
            dtype: DT_INT32
            tensor_shape {
              dim {
                size: 3
              }
            }
            tensor_content: "\000\000\000\000\001\000\000\000\002\000\000\000"
          }
        }
      }
    }
    node_def {
      name: "Mean"
      op: "Mean"
      input: "control_dependency:output:0"
      input: "Const_1:output:0"
      attr {
        key: "T"
        value {
          type: DT_FLOAT
        }
      }
      attr {
        key: "Tidx"
        value {
          type: DT_INT32
        }
      }
      attr {
        key: "keep_dims"
        value {
          b: false
        }
      }
    }
    node_def {
      name: "Square"
      op: "Square"
      input: "control_dependency:output:0"
      attr {
        key: "T"
        value {
          type: DT_FLOAT
        }
      }
    }
    node_def {
      name: "Const_2"
      op: "Const"
      attr {
        key: "dtype"
        value {
          type: DT_INT32
        }
      }
      attr {
        key: "value"
        value {
          tensor {
            dtype: DT_INT32
            tensor_shape {
              dim {
                size: 3
              }
            }
            tensor_content: "\000\000\000\000\001\000\000\000\002\000\000\000"
          }
        }
      }
    }
    node_def {
      name: "Mean_1"
      op: "Mean"
      input: "Square:y:0"
      input: "Const_2:output:0"
      attr {
        key: "T"
        value {
          type: DT_FLOAT
        }
      }
      attr {
        key: "Tidx"
        value {
          type: DT_INT32
        }
      }
      attr {
        key: "keep_dims"
        value {
          b: false
        }
      }
    }
    node_def {
      name: "Square_1"
      op: "Square"
      input: "Mean:output:0"
      attr {
        key: "T"
        value {
          type: DT_FLOAT
        }
      }
    }
    node_def {
      name: "sub"
      op: "Sub"
      input: "Mean_1:output:0"
      input: "Square_1:y:0"
      attr {
        key: "T"
        value {
          type: DT_FLOAT
        }
      }
    }
    node_def {
      name: "Relu"
      op: "Relu"
      input: "sub:z:0"
      attr {
        key: "T"
        value {
          type: DT_FLOAT
        }
      }
    }
    node_def {
      name: "Sqrt"
      op: "Sqrt"
      input: "Relu:activations:0"
      attr {
        key: "T"
        value {
          type: DT_FLOAT
        }
      }
    }
    node_def {
      name: "Cast_1"
      op: "Cast"
      input: "Prod:output:0"
      attr {
        key: "DstT"
        value {
          type: DT_FLOAT
        }
      }
      attr {
        key: "SrcT"
        value {
          type: DT_INT32
        }
      }
    }
    node_def {
      name: "Rsqrt"
      op: "Rsqrt"
      input: "Cast_1:y:0"
      attr {
        key: "T"
        value {
          type: DT_FLOAT
        }
      }
    }
    node_def {
      name: "Maximum"
      op: "Maximum"
      input: "Sqrt:y:0"
      input: "Rsqrt:y:0"
      attr {
        key: "T"
        value {
          type: DT_FLOAT
        }
      }
    }
    node_def {
      name: "Sub"
      op: "Sub"
      input: "control_dependency:output:0"
      input: "Mean:output:0"
      attr {
        key: "T"
        value {
          type: DT_FLOAT
        }
      }
    }
    node_def {
      name: "div"
      op: "RealDiv"
      input: "Sub:z:0"
      input: "Maximum:z:0"
      attr {
        key: "T"
        value {
          type: DT_FLOAT
        }
      }
    }
    ret {
      key: "arg1"
      value: "arg1"
    }
    ret {
      key: "div"
      value: "div:z:0"
    }
  }
  function {
    signature {
      name: "_make_dataset_b1e173d1"
      output_arg {
        name: "BatchDataset"
        type: DT_VARIANT
      }
    }
    node_def {
      name: "FixedLengthRecordDataset/filenames"
      op: "Const"
      attr {
        key: "dtype"
        value {
          type: DT_STRING
        }
      }
      attr {
        key: "value"
        value {
          tensor {
            dtype: DT_STRING
            tensor_shape {
              dim {
                size: 5
              }
            }
            string_val: "/home/yaroslav/cifar-data/cifar-10-batches-bin/data_batch_1.bin"
            string_val: "/home/yaroslav/cifar-data/cifar-10-batches-bin/data_batch_2.bin"
            string_val: "/home/yaroslav/cifar-data/cifar-10-batches-bin/data_batch_3.bin"
            string_val: "/home/yaroslav/cifar-data/cifar-10-batches-bin/data_batch_4.bin"
            string_val: "/home/yaroslav/cifar-data/cifar-10-batches-bin/data_batch_5.bin"
          }
        }
      }
    }
    node_def {
      name: "FixedLengthRecordDataset/header_bytes"
      op: "Const"
      attr {
        key: "dtype"
        value {
          type: DT_INT64
        }
      }
      attr {
        key: "value"
        value {
          tensor {
            dtype: DT_INT64
            tensor_shape {
            }
            int64_val: 0
          }
        }
      }
    }
    node_def {
      name: "FixedLengthRecordDataset/record_bytes"
      op: "Const"
      attr {
        key: "dtype"
        value {
          type: DT_INT64
        }
      }
      attr {
        key: "value"
        value {
          tensor {
            dtype: DT_INT64
            tensor_shape {
            }
            int64_val: 3073
          }
        }
      }
    }
    node_def {
      name: "FixedLengthRecordDataset/footer_bytes"
      op: "Const"
      attr {
        key: "dtype"
        value {
          type: DT_INT64
        }
      }
      attr {
        key: "value"
        value {
          tensor {
            dtype: DT_INT64
            tensor_shape {
            }
            int64_val: 0
          }
        }
      }
    }
    node_def {
      name: "FixedLengthRecordDataset/buffer_size"
      op: "Const"
      attr {
        key: "dtype"
        value {
          type: DT_INT64
        }
      }
      attr {
        key: "value"
        value {
          tensor {
            dtype: DT_INT64
            tensor_shape {
            }
            int64_val: 262144
          }
        }
      }
    }
    node_def {
      name: "FixedLengthRecordDataset"
      op: "FixedLengthRecordDataset"
      input: "FixedLengthRecordDataset/filenames:output:0"
      input: "FixedLengthRecordDataset/header_bytes:output:0"
      input: "FixedLengthRecordDataset/record_bytes:output:0"
      input: "FixedLengthRecordDataset/footer_bytes:output:0"
      input: "FixedLengthRecordDataset/buffer_size:output:0"
    }
    node_def {
      name: "RepeatDataset/count"
      op: "Const"
      attr {
        key: "dtype"
        value {
          type: DT_INT64
        }
      }
      attr {
        key: "value"
        value {
          tensor {
            dtype: DT_INT64
            tensor_shape {
            }
            int64_val: -1
          }
        }
      }
    }
    node_def {
      name: "RepeatDataset"
      op: "RepeatDataset"
      input: "FixedLengthRecordDataset:handle:0"
      input: "RepeatDataset/count:output:0"
      attr {
        key: "output_shapes"
        value {
          list {
            shape {
            }
          }
        }
      }
      attr {
        key: "output_types"
        value {
          list {
            type: DT_STRING
          }
        }
      }
    }
    node_def {
      name: "ParallelMapDataset/num_parallel_calls"
      op: "Const"
      attr {
        key: "dtype"
        value {
          type: DT_INT32
        }
      }
      attr {
        key: "value"
        value {
          tensor {
            dtype: DT_INT32
            tensor_shape {
            }
            int_val: 1
          }
        }
      }
    }
    node_def {
      name: "ParallelMapDataset"
      op: "ParallelMapDataset"
      input: "RepeatDataset:handle:0"
      input: "ParallelMapDataset/num_parallel_calls:output:0"
      attr {
        key: "Targuments"
        value {
          list {
          }
        }
      }
      attr {
        key: "f"
        value {
          func {
            name: "tf_map_func_dd7e9ec6"
          }
        }
      }
      attr {
        key: "output_shapes"
        value {
          list {
            shape {
              dim {
                size: 32
              }
              dim {
                size: 32
              }
              dim {
                size: 3
              }
            }
            shape {
              dim {
                size: 10
              }
            }
          }
        }
      }
      attr {
        key: "output_types"
        value {
          list {
            type: DT_FLOAT
            type: DT_FLOAT
          }
        }
      }
    }
    node_def {
      name: "PrefetchDataset/Const"
      op: "Const"
      attr {
        key: "dtype"
        value {
          type: DT_INT64
        }
      }
      attr {
        key: "value"
        value {
          tensor {
            dtype: DT_INT64
            tensor_shape {
            }
            int64_val: 256
          }
        }
      }
    }
    node_def {
      name: "PrefetchDataset"
      op: "PrefetchDataset"
      input: "ParallelMapDataset:handle:0"
      input: "PrefetchDataset/Const:output:0"
      attr {
        key: "output_shapes"
        value {
          list {
            shape {
              dim {
                size: 32
              }
              dim {
                size: 32
              }
              dim {
                size: 3
              }
            }
            shape {
              dim {
                size: 10
              }
            }
          }
        }
      }
      attr {
        key: "output_types"
        value {
          list {
            type: DT_FLOAT
            type: DT_FLOAT
          }
        }
      }
    }
    node_def {
      name: "ParallelMapDataset_1/num_parallel_calls_1"
      op: "Const"
      attr {
        key: "dtype"
        value {
          type: DT_INT32
        }
      }
      attr {
        key: "value"
        value {
          tensor {
            dtype: DT_INT32
            tensor_shape {
            }
            int_val: 1
          }
        }
      }
    }
    node_def {
      name: "ParallelMapDataset_1"
      op: "ParallelMapDataset"
      input: "PrefetchDataset:handle:0"
      input: "ParallelMapDataset_1/num_parallel_calls_1:output:0"
      attr {
        key: "Targuments"
        value {
          list {
          }
        }
      }
      attr {
        key: "f"
        value {
          func {
            name: "tf_map_func_671053fa"
          }
        }
      }
      attr {
        key: "output_shapes"
        value {
          list {
            shape {
              dim {
                size: 32
              }
              dim {
                size: 32
              }
              dim {
                size: 3
              }
            }
            shape {
              dim {
                size: 10
              }
            }
          }
        }
      }
      attr {
        key: "output_types"
        value {
          list {
            type: DT_FLOAT
            type: DT_FLOAT
          }
        }
      }
    }
    node_def {
      name: "PrefetchDataset_1/Const_1"
      op: "Const"
      attr {
        key: "dtype"
        value {
          type: DT_INT64
        }
      }
      attr {
        key: "value"
        value {
          tensor {
            dtype: DT_INT64
            tensor_shape {
            }
            int64_val: 256
          }
        }
      }
    }
    node_def {
      name: "PrefetchDataset_1"
      op: "PrefetchDataset"
      input: "ParallelMapDataset_1:handle:0"
      input: "PrefetchDataset_1/Const_1:output:0"
      attr {
        key: "output_shapes"
        value {
          list {
            shape {
              dim {
                size: 32
              }
              dim {
                size: 32
              }
              dim {
                size: 3
              }
            }
            shape {
              dim {
                size: 10
              }
            }
          }
        }
      }
      attr {
        key: "output_types"
        value {
          list {
            type: DT_FLOAT
            type: DT_FLOAT
          }
        }
      }
    }
    node_def {
      name: "ShuffleDataset/buffer_size_1"
      op: "Const"
      attr {
        key: "dtype"
        value {
          type: DT_INT64
        }
      }
      attr {
        key: "value"
        value {
          tensor {
            dtype: DT_INT64
            tensor_shape {
            }
            int64_val: 20384
          }
        }
      }
    }
    node_def {
      name: "ShuffleDataset/seed"
      op: "Const"
      attr {
        key: "dtype"
        value {
          type: DT_INT64
        }
      }
      attr {
        key: "value"
        value {
          tensor {
            dtype: DT_INT64
            tensor_shape {
            }
            int64_val: 0
          }
        }
      }
    }
    node_def {
      name: "ShuffleDataset/seed2"
      op: "Const"
      attr {
        key: "dtype"
        value {
          type: DT_INT64
        }
      }
      attr {
        key: "value"
        value {
          tensor {
            dtype: DT_INT64
            tensor_shape {
            }
            int64_val: 0
          }
        }
      }
    }
    node_def {
      name: "ShuffleDataset"
      op: "ShuffleDataset"
      input: "PrefetchDataset_1:handle:0"
      input: "ShuffleDataset/buffer_size_1:output:0"
      input: "ShuffleDataset/seed:output:0"
      input: "ShuffleDataset/seed2:output:0"
      attr {
        key: "output_shapes"
        value {
          list {
            shape {
              dim {
                size: 32
              }
              dim {
                size: 32
              }
              dim {
                size: 3
              }
            }
            shape {
              dim {
                size: 10
              }
            }
          }
        }
      }
      attr {
        key: "output_types"
        value {
          list {
            type: DT_FLOAT
            type: DT_FLOAT
          }
        }
      }
    }
    node_def {
      name: "ParallelMapDataset_2/num_parallel_calls_2"
      op: "Const"
      attr {
        key: "dtype"
        value {
          type: DT_INT32
        }
      }
      attr {
        key: "value"
        value {
          tensor {
            dtype: DT_INT32
            tensor_shape {
            }
            int_val: 1
          }
        }
      }
    }
    node_def {
      name: "ParallelMapDataset_2"
      op: "ParallelMapDataset"
      input: "ShuffleDataset:handle:0"
      input: "ParallelMapDataset_2/num_parallel_calls_2:output:0"
      attr {
        key: "Targuments"
        value {
          list {
          }
        }
      }
      attr {
        key: "f"
        value {
          func {
            name: "tf_map_func_c5fa6fa0"
          }
        }
      }
      attr {
        key: "output_shapes"
        value {
          list {
            shape {
              dim {
                size: 32
              }
              dim {
                size: 32
              }
              dim {
                size: 3
              }
            }
            shape {
              dim {
                size: 10
              }
            }
          }
        }
      }
      attr {
        key: "output_types"
        value {
          list {
            type: DT_FLOAT
            type: DT_FLOAT
          }
        }
      }
    }
    node_def {
      name: "PrefetchDataset_2/Const_2"
      op: "Const"
      attr {
        key: "dtype"
        value {
          type: DT_INT64
        }
      }
      attr {
        key: "value"
        value {
          tensor {
            dtype: DT_INT64
            tensor_shape {
            }
            int64_val: 256
          }
        }
      }
    }
    node_def {
      name: "PrefetchDataset_2"
      op: "PrefetchDataset"
      input: "ParallelMapDataset_2:handle:0"
      input: "PrefetchDataset_2/Const_2:output:0"
      attr {
        key: "output_shapes"
        value {
          list {
            shape {
              dim {
                size: 32
              }
              dim {
                size: 32
              }
              dim {
                size: 3
              }
            }
            shape {
              dim {
                size: 10
              }
            }
          }
        }
      }
      attr {
        key: "output_types"
        value {
          list {
            type: DT_FLOAT
            type: DT_FLOAT
          }
        }
      }
    }
    node_def {
      name: "BatchDataset/batch_size"
      op: "Const"
      attr {
        key: "dtype"
        value {
          type: DT_INT64
        }
      }
      attr {
        key: "value"
        value {
          tensor {
            dtype: DT_INT64
            tensor_shape {
            }
            int64_val: 128
          }
        }
      }
    }
    node_def {
      name: "BatchDataset"
      op: "BatchDataset"
      input: "PrefetchDataset_2:handle:0"
      input: "BatchDataset/batch_size:output:0"
      attr {
        key: "output_shapes"
        value {
          list {
            shape {
              dim {
                size: -1
              }
              dim {
                size: 32
              }
              dim {
                size: 32
              }
              dim {
                size: 3
              }
            }
            shape {
              dim {
                size: -1
              }
              dim {
                size: 10
              }
            }
          }
        }
      }
      attr {
        key: "output_types"
        value {
          list {
            type: DT_FLOAT
            type: DT_FLOAT
          }
        }
      }
    }
    ret {
      key: "BatchDataset"
      value: "BatchDataset:handle:0"
    }
  }
}
versions {
  producer: 24
  min_consumer: 12
}
